Assets/DodgeMissile-5000021.onnx (onnx, 340597 bytes, 13 tensors)

action_model._continuous_distribution.mu.weight f4 [1, 128]
000000 ba eb fa be 37 c3 e7 be af 63 03 bd 51 33 b9 bc
       -0.4900797 -0.45266125 -0.032077488 -0.022607477
000010 eb 93 ca 3c 55 9c a5 be 60 7f eb 3d 93 66 a9 be
       0.024728736 -0.32345834 0.11498904 -0.3308607
000020 3e bb e4 be 68 77 82 3c 7d 4e e2 be 54 66 bb be
       -0.44674104 0.015926078 -0.44200507 -0.36601508
000030 c4 10 7f bd 41 fe a2 be 79 22 08 be 0a e6 c5 3d
       -0.06227185 -0.31834605 -0.132944 0.09663017
000040 f2 68 69 bc 62 65 da be 6c 0a 26 bd 32 21 0f 3d
       -0.014246212 -0.42655474 -0.040537283 0.034943767
000050 46 74 c0 bd e3 36 cf be 87 c5 9a be e6 ef 09 3e
       -0.093971774 -0.40471563 -0.30228826 0.1347042
000060 9d a3 ca be 4e cb c1 be 7a e9 89 be fb b8 c0 be
       -0.39577952 -0.37850422 -0.2693594 -0.3764113
000070 fa 4b e6 be 76 20 ae be 64 56 16 3d 6f 43 4e 3d
       -0.4497984 -0.3400914 0.036703482 0.05035728
000080 29 06 d6 be 86 ee a5 be e0 11 83 be de ef a7 be
       -0.41801575 -0.3240854 -0.25599575 -0.32800192
000090 66 54 a8 bd 36 95 0f 3d 2c 5c 95 bd c3 b9 02 bf
       -0.08219223 0.035054408 -0.07292971 -0.510647
0000a0 58 0f 1a 3e 95 8d f0 be 72 ff 1c be 6b 15 63 be
       0.15044916 -0.4698302 -0.1533182 -0.22176139
0000b0 93 a2 c0 be 52 53 b9 be b2 27 eb bd 5b ea b0 be
       -0.37624034 -0.3619638 -0.11482181 -0.345538
0000c0 e9 6f ad be 37 30 5f be 9e 7e ea bd 3a 0a 92 be
       -0.33874443 -0.21795736 -0.114499316 -0.28523427
0000d0 a2 a5 ea be 6f b1 00 bf ef 70 98 bd 74 ce 69 3d
       -0.45829493 -0.5027074 -0.074434154 0.057081655
0000e0 0b e5 d9 be b0 94 93 be 10 f6 f9 3d 3e 86 79 bd
       -0.42557558 -0.28824377 0.12205136 -0.06091904
0000f0 aa a6 2b be 84 e4 a3 bd ef 9f be be 8a c7 8c be
       -0.16762796 -0.0800257 -0.37231395 -0.27495986
000100 66 17 b8 3b 06 62 1f bd f9 e8 9c be 03 7d 66 be
       0.0056180237 -0.03891184 -0.30646494 -0.22508626
000110 a2 5a 03 3d 1d f2 6e be d6 f0 b4 be ae 36 1d be
       0.032068856 -0.23334546 -0.35339993 -0.1535289
000120 50 99 2c 3c 01 a1 ee be 9b 72 b5 be 09 d4 10 be
       0.010534599 -0.4660721 -0.35439 -0.14143385
000130 98 44 b2 bd c3 2f 80 be 9d 0d 32 3d b9 8f 21 be
       -0.087044895 -0.2503644 0.043470014 -0.15777482
000140 f1 e7 19 bd 80 d4 d6 bd 39 68 0c 3d c0 a8 d9 bc
       -0.037574712 -0.1048975 0.034279082 -0.026569724
000150 30 7b bd bc f7 0f 96 bd 99 9a c5 be a7 59 cc be
       -0.02313003 -0.07327264 -0.3859451 -0.3991215
000160 c7 8b f6 bc 29 37 ec bd 7c 82 cf 3d 7e f0 8e be
       -0.030095948 -0.115339585 0.1013231 -0.27917856
000170 12 bd a0 be ae 53 96 be 22 84 b0 bd bd 98 3b be
       -0.3139425 -0.29360718 -0.08618952 -0.18319984
000180 77 41 66 3d 48 d3 8c 3c 4b d5 be be cd cc 92 bc
       0.056214776 0.01719059 -0.37272105 -0.017919922
000190 cd ab e5 be 85 70 59 bd dd d2 b9 3d c7 e8 a3 be
       -0.44857636 -0.053085823 0.09073422 -0.32013533
0001a0 0c 1b 1e bf fa 31 77 bd 88 04 a1 bc f3 a3 03 3e
       -0.6176002 -0.060350396 -0.019655481 0.1285551
0001b0 03 a3 14 be f6 06 79 bc 82 00 d2 be 3d c2 25 be
       -0.14515309 -0.0151994135 -0.41016012 -0.16187377
0001c0 f1 a5 97 be ca 83 6a bd 67 08 8d 3d c6 19 c2 bc
       -0.2961879 -0.05725459 0.06886368 -0.02369393
0001d0 93 0d ee bd 86 42 b8 be 5a b5 86 be 8e 59 1d be
       -0.11623683 -0.35988253 -0.26310235 -0.15366194
0001e0 0a 72 d9 be e8 d8 8e bd 97 e9 9e be bd d6 43 be
       -0.42469817 -0.06974965 -0.3103759 -0.19124885
0001f0 19 f2 e7 be 24 8b 38 be a4 9c cb 3d da 20 d7 bd
       -0.45301893 -0.18021828 0.09941986 -0.10504313

network_body._body_endoder.seq_layers.0.bias f4 [128]
000000 80 df 0b 3d 8e 93 0b be 42 47 9b 3d 76 7b 62 3d
       0.034148693 -0.13630506 0.07581951 0.055293523
000010 49 81 2e be 83 72 f5 bd 39 90 6b bd 98 f1 5b be
       -0.17041506 -0.11984732 -0.05751059 -0.2147888
000020 b9 b5 4a be 3f 0c 1c 3e 10 45 1e be 3f ea 29 bd
       -0.19795884 0.15239047 -0.15456033 -0.04148316
000030 ea 33 01 be 87 2e 63 bc a6 66 0b bd b4 09 96 bb
       -0.1261746 -0.013866073 -0.03403344 -0.0045787934
000040 d0 67 29 3c ad 89 b0 bd be d4 4f bd 43 1e 9c bc
       0.010339692 -0.086200096 -0.050739996 -0.019057399
000050 ff ba 03 3e 7c 04 94 3d 64 2f f5 3d e0 a4 64 bd
       0.12864302 0.07227418 0.1197193 -0.0558213
000060 36 c4 ea 3b 0b 0c ba bc c5 53 25 be a1 80 bd be
       0.0071645034 -0.02271082 -0.16145237 -0.370122
000070 a3 9c 8e be 55 04 d1 bd b8 1d 0d bd 0c 9c de bc
       -0.2785388 -0.102059044 -0.03445217 -0.027174018
000080 99 94 12 bb 85 2c 79 bc bf b9 54 3d c4 fd 0f bd
       -0.0022366403 -0.015208368 0.051934954 -0.03515412
000090 d8 5f f5 bd b5 56 27 be d7 fd 77 b0 35 21 c1 3d
       -0.11981171 -0.1634167 -9.0218805e-10 0.09430162
0000a0 b5 06 32 bd b6 c5 91 be bb 60 73 3d 66 75 8f bd
       -0.043463428 -0.28471154 0.05941842 -0.07004814
0000b0 27 e1 99 bc 6a 20 ee bd 52 22 aa bd 48 bc 94 be
       -0.018784119 -0.11627276 -0.08307327 -0.29049897
0000c0 d6 51 29 be 92 ce 80 be 81 04 10 be bd 10 e3 3c
       -0.16535124 -0.251576 -0.14064218 0.027717942
0000d0 06 d6 c6 bd 22 10 9c bd 2b 14 8e be 33 08 db bd
       -0.097087905 -0.076202646 -0.27749762 -0.10694923
0000e0 5a b1 0a be b6 a5 41 3c d9 1b 35 3d fc 54 78 37
       -0.13544217 0.011819294 0.04421601 1.4801739e-05
0000f0 b8 ad 06 be a4 cf d0 bd 53 13 67 32 e6 94 17 bd
       -0.13152206 -0.10195854 1.34503635e-08 -0.037007235
000100 34 31 87 be 6e 93 b8 bd 8d ac 29 be 8b be fb bd
       -0.26404727 -0.09012495 -0.16569729 -0.122922026
000110 4f ca 88 bc 52 d6 0a 3c 88 01 41 bd ea a4 5f bd
       -0.01669803 0.0084739495 -0.0471206 -0.054600634
000120 b5 90 a1 3b 32 c8 e9 bd 97 d4 2f be 39 d6 39 bd
       0.0049305805 -0.11415137 -0.1717094 -0.045370314
000130 82 85 f7 bc 65 0c 88 ae 1c 3b 6a be 6e 49 25 3d
       -0.030215029 -6.186766e-11 -0.22874111 0.04035323
000140 56 5b ec bd 72 56 96 bd d7 2b c4 bb aa ea d6 3d
       -0.115408584 -0.07340707 -0.0059866714 0.10493977
000150 15 a4 6c be 5d 56 cd b9 87 e4 b7 36 6e fe be bd
       -0.23109467 -0.00039164993 5.480429e-06 -0.09325872
000160 e9 4a 23 3d 57 e8 04 3c b4 4a 41 be fc e2 e2 bd
       0.03986636 0.008112035 -0.18876153 -0.1107845
000170 e9 b5 e6 30 43 a9 54 bd f0 b1 45 8e 74 f2 9e be
       1.6786404e-09 -0.051919233 -2.4367799e-30 -0.31044352
000180 54 f4 6a bd 1d bc 87 ba 64 46 32 bc 40 c0 a3 bd
       -0.057361916 -0.0010355745 -0.01088104 -0.07995653
000190 f0 fc d6 bd 4a 3a bf bb de 52 49 be 38 f4 0d be
       -0.10497463 -0.005835806 -0.19660518 -0.13862693
0001a0 9b 09 69 bd d7 7f 3e bd 82 6b 99 be 73 8b 17 b7
       -0.056893926 -0.046508636 -0.29964834 -9.032769e-06
0001b0 da 46 fa 3d 28 76 d1 3c a0 28 10 be 06 28 da bd
       0.12220545 0.025569037 -0.14077997 -0.10652165
0001c0 02 ab ec bd 32 2e 35 bd 2b 69 99 be 3b d4 0f 3c
       -0.11556055 -0.04423351 -0.2996305 0.008778627
0001d0 ed e2 0b bc 7d 5e b0 bd 59 cb 44 bd 5e 9d a7 3d
       -0.00853799 -0.08611772 -0.04804549 0.08184312
0001e0 3d b3 98 3e 41 18 af bd 4f 06 51 be e6 53 bb bd
       0.29824248 -0.08549548 -0.20412563 -0.09146862
0001f0 0f 13 28 bd 70 8b bc bd 03 b0 9e be fb 0c cb bd
       -0.0410338 -0.09206283 -0.3099366 -0.09914585

network_body._body_endoder.seq_layers.0.weight f4 [128, 12]
000000 0e 39 08 be 9c c0 0d bd 56 90 bc be 19 b7 53 be
       -0.13303015 -0.034607515 -0.3682887 -0.20675315
000010 d6 98 e3 bd 26 c2 0b be d4 c5 df bd 65 69 cc 3e
       -0.111131355 -0.1364828 -0.109264046 0.3992416
000020 61 aa da 3d 88 f7 1b be 68 15 90 3e 87 03 99 bd
       0.106770284 -0.15231144 0.28141332 -0.07471376
000030 e0 11 a3 3e 5f a4 02 be 54 61 49 be fe 0a 88 be
       0.31849575 -0.12758015 -0.19666034 -0.26570886
000040 90 aa 29 3e 08 f0 62 bc bc e1 4f bf a9 42 51 be
       0.1656897 -0.013851173 -0.8120382 -0.20435585
000050 35 40 7a 3d fc de b3 be f2 ca 5b 3d 1b 81 00 be
       0.06109639 -0.3513106 0.05366034 -0.1254925
000060 b7 d2 93 be 12 2b 9a be 7b d1 8c be 37 00 d4 3d
       -0.288717 -0.30110985 -0.2750357 0.103516035
000070 5f b1 80 be c6 c0 d2 be b4 f6 ef bd 60 c5 05 3e
       -0.25135323 -0.411627 -0.11716977 0.13063574
000080 1a ed de 3e 77 ce bb be da 36 9e bd 83 3d 44 3e
       0.4354027 -0.36680958 -0.07725306 0.1916409
000090 b6 7f 12 bf c1 f3 f9 3d d4 ea b4 be cb 34 96 3e
       -0.5722612 0.122046955 -0.3533541 0.29337153
0000a0 a0 32 6f 3c 45 aa bf be ae 07 0a be b4 ba 2b 3d
       0.014599472 -0.37434593 -0.13479492 0.0419261
0000b0 24 69 b3 3e 1a f5 b2 3e 5b c1 95 3d fb b4 1f 3e
       0.35041153 0.34952623 0.0731227 0.15596382
0000c0 a3 a1 44 bf cf 87 5d bd 50 04 cd 3e a3 17 ed be
       -0.7680914 -0.054084595 0.40042353 -0.46307096
0000d0 94 c1 87 3d 03 77 a4 bd 77 4c 99 bd 71 03 86 3e
       0.06628719 -0.08030512 -0.07485288 0.261745
0000e0 db 9a 8c 3e ef 97 9c 3e 3e fe 93 3e ed e2 f1 bd
       0.27461895 0.30584666 0.2890491 -0.11810861
0000f0 fa 87 a8 be 73 a5 db be 86 0a 47 bf 38 6d d7 bc
       -0.32916242 -0.42899665 -0.7775043 -0.026297197
000100 d1 5c 6c be 56 71 98 3e c4 61 d4 bd bb 9f be 3d
       -0.23082282 0.29773968 -0.1037021 0.0930781
000110 27 1c 6c 3e 6c f1 29 be 7b 39 fc 3e 28 5b 8b be
       0.23057614 -0.16596001 0.49262604 -0.27217984
000120 bb 15 60 3e 63 5e 39 be 5b 60 d7 3a 1d e2 ea 3d
       0.2188329 -0.18102412 0.0016431914 0.11468909
000130 00 5a 60 be 86 ac b4 3d 6b 95 17 bf 7e b4 1f 37
       -0.21909332 0.08821969 -0.5921237 9.519163e-06
000140 33 55 8c 3d 43 99 b2 3c 64 26 94 3e 7f 60 28 bf
       0.06852188 0.021801597 0.2893554 -0.6577224
000150 a2 48 45 bf f9 be a0 bd f3 ba 00 3e 5a b1 83 3e
       -0.77063954 -0.07848925 0.12571315 0.25721246
000160 e7 32 b8 3e 0f f6 cd 3e f5 66 da be d1 08 bb be
       0.35976335 0.4022679 -0.42656675 -0.36530164
000170 1a 33 a0 be 9e 58 4a bd e2 9b 87 3d 20 8e 78 3c
       -0.31288987 -0.04940092 0.06621529 0.015170604
000180 fa 0c 36 be ef 16 47 3d 64 b8 94 3d bb e2 17 be
       -0.17778388 0.048605856 0.07261732 -0.14832585
000190 12 b1 a0 bd 4b 02 34 bf 86 a4 5b be 00 15 a8 3e
       -0.078462735 -0.70316 -0.2144948 0.32828522
0001a0 32 9f a9 3d ae c5 f0 be 4b b8 e5 3e 0c 02 08 be
       0.08282317 -0.47025818 0.44867167 -0.13282031
0001b0 e9 56 31 3f a5 83 9e 3d a9 0b 72 be ce 29 1a 3f
       0.6927324 0.07739953 -0.2363726 0.6022004
0001c0 5e 61 34 bd b1 ac 32 bf 48 85 24 be 15 d7 c2 3e
       -0.04403817 -0.69794756 -0.16066468 0.3805472
0001d0 8c c3 91 3c 11 ea 95 3e 1d 52 58 be 78 f7 c7 bd
       0.01779344 0.2928014 -0.21125074 -0.09763998
0001e0 a6 c4 00 be e9 3f 9c bd 90 6d e1 be 5f 62 56 3e
       -0.12575015 -0.076293774 -0.44028902 0.20935963
0001f0 f0 3e c7 be 8e 23 dc be 05 83 80 3e 76 dd 8a 3e
       -0.38915205 -0.42995876 0.2509996 0.27122086
000200 dc 1d fc 3d 61 99 93 be 87 b4 08 3e 1f 9a f5 3a
       0.12310383 -0.28827956 0.13350116 0.0018737948
000210 e3 65 cd 3e a6 d8 fa be ca 6d e0 3c b6 0f 9f 3e
       0.40116796 -0.48993415 0.027396102 0.31066674
000220 1d cf 97 3d 8e 82 b9 3e 97 01 8c bd 65 5f 63 3e
       0.074125506 0.36232418 -0.06836241 0.22204359
000230 76 27 9b bd ae eb c2 3e 62 c6 e9 be a4 02 ce be
       -0.07575886 0.38070434 -0.45659167 -0.4023639
000240 e2 f9 00 3e c1 f3 b4 bd c2 32 9f 3e 08 b9 8f 3e
       0.12595323 -0.08835555 0.31093413 0.28070855
000250 49 9d f9 be e1 46 2a 3e 0d 20 1e bc 54 d9 ab 3e
       -0.48752812 0.166286 -0.009651196 0.33564246
000260 3b a9 23 3e b8 a6 0b bf ac eb 06 3e 52 00 cb bd
       0.15982525 -0.5455127 0.13175839 -0.099121705
000270 71 0f 3a bf 46 cb f4 3e 62 80 0d 3e de b2 ad 3e
       -0.7267981 0.47811335 0.13818505 0.33925527
000280 2a 12 f1 3d 83 ed 83 be be 88 be 3d b5 5e c7 be
       0.11771043 -0.25767145 0.09303425 -0.38939443
000290 6c a9 13 be ea d2 83 be 6e 40 b7 bb 3e 5d 6b 3e
       -0.14420098 -0.25746852 -0.0055923974 0.22984788
0002a0 4a 7f 7b bf 8f f9 cc be 39 ba 0c 3d 3f 75 b6 bd
       -0.982411 -0.40034148 0.034357283 -0.08909082
0002b0 a7 d4 82 3d eb 8b d1 bd ba 55 90 3e f8 24 1f be
       0.063882165 -0.10231765 0.28190404 -0.15541446
0002c0 a1 cb 96 bc 5c ff 9f bd 2c 61 d0 3e 34 c2 da 3e
       -0.018407645 -0.07812378 0.40699136 0.4272629
0002d0 fa dd 3a be df ae ec be e5 e6 2b 3e 89 9b aa 3e
       -0.1824874 -0.46227166 0.16787298 0.3332179
0002e0 06 d3 de 3a ce d8 e7 be 29 13 89 be 57 40 ba bd
       0.0017000146 -0.45282596 -0.2677243 -0.09094303
0002f0 41 b1 0c be 5f 82 3e 3f 78 10 25 3e 62 a2 1e bd
       -0.13739492 0.7441768 0.16119564 -0.03872908
000300 36 b2 32 3e 8d 88 ef bd da d3 b9 3e 60 23 41 3f
       0.17450795 -0.11695967 0.36294442 0.754446
000310 3f be 37 bd b9 59 ba be 6d ad 13 be f8 68 18 3a
       -0.044859167 -0.36396578 -0.14421625 0.00058139814
000320 70 ca 87 3e df e9 6b be f5 97 aa 3e 9a 3a b2 be
       0.26521635 -0.23038433 0.3331906 -0.34810334
000330 9e 44 99 be 58 29 83 3e 3d a8 46 be 95 bb e4 be
       -0.29935163 0.2561748 -0.19400115 -0.44674364
000340 9f 5c ea be 0e bf 16 be 45 0e c5 3e d6 53 d6 3d
       -0.4577379 -0.14721319 0.3848745 0.10465209
000350 3b 41 74 3d 9e a5 a2 3e d9 50 02 be 91 40 51 3e
       0.05963252 0.3176698 -0.12726153 0.20434786
000360 a1 7b 38 be b9 d8 88 3e bb eb 0a bf 43 7d a5 3d
       -0.1801591 0.26727846 -0.54265946 0.080805324
000370 a2 42 15 be de 00 1c bf b7 3e 48 bd ca cc 4b 3e
       -0.145762 -0.60938823 -0.048887935 0.1990234
000380 32 e5 89 3e 33 c2 19 bc 44 0f b7 bd 27 84 30 be
       0.26932675 -0.00938468 -0.089384586 -0.17237912
000390 15 e2 ca be 31 3c 82 be 89 5a b8 3d f4 ec 3d 3e
       -0.39625612 -0.25436547 0.09001643 0.18547422
0003a0 99 e6 02 3d 31 6b 87 bd 57 a0 78 3d 43 38 8e 3e
       0.031958196 -0.06612242 0.060699787 0.277773
0003b0 5d b2 8c be 13 bc f6 bd 08 07 83 bd f0 8e 12 be
       -0.2747983 -0.12047591 -0.063978255 -0.14312339
0003c0 f2 a7 82 be 13 11 88 3e fd 2f ae 3e bb 84 e2 be
       -0.25518757 0.26575527 0.34020987 -0.4424189
0003d0 9f 66 26 bf 57 62 17 be 30 06 ed 3d 9c f3 01 3f
       -0.6500034 -0.14783607 0.11573446 0.50762343
0003e0 77 2e a2 be 33 87 a0 3e 08 ee 2a be 05 1a 57 3f
       -0.31676075 0.3135315 -0.16692364 0.8402408
0003f0 a3 07 ab 3e 8b be 1e 3f b9 4c 92 3e 86 ba 55 3e
       0.33404264 0.62009495 0.2857416 0.20871934

network_body._body_endoder.seq_layers.10.bias f4 [128]
000000 a4 30 59 3e f4 0a 32 3e cc 57 b2 3e 04 1c a7 bd
       0.21209961 0.17386991 0.3483261 -0.081596404
000010 20 10 9e 3d 28 bd 6b 3c 3e e8 ba 3e 51 e3 25 3e
       0.07717919 0.01438836 0.36505312 0.16199996
000020 4a 81 7f 3e 16 b7 b6 3d 7a d7 3a 3e fd e2 08 3e
       0.24951664 0.089216396 0.1824626 0.13367839
000030 e5 31 c9 3d de a7 f5 3d 99 2b 0e 3e 92 20 b1 3e
       0.0982397 0.11994909 0.13883819 0.34595162
000040 fe ba 18 be ca 44 01 3e ca 20 32 3e 1f b1 48 be
       -0.14915082 0.12623897 0.1739532 -0.19598816
000050 d4 46 6c be 79 58 04 3e eb 64 de 3d d3 3a 99 3e
       -0.23073894 0.12924375 0.10859092 0.29927692
000060 37 41 8a 3e 72 5c 30 bd dc 37 5f 3e 2f 30 79 3e
       0.2700288 -0.043056913 0.21798652 0.24334787
000070 08 62 12 3e bd 69 a9 3d 73 a3 17 3f d5 da b6 bd
       0.14295208 0.08272121 0.5923378 -0.08928458
000080 03 4b 14 3c 7e fc 46 3e dc c7 d4 3d 82 c4 51 3d
       0.009051087 0.19432256 0.10389683 0.051212795
000090 b5 11 00 3e c0 4a f0 bd ec 60 fe bd ef a7 16 3e
       0.12506755 -0.117330074 -0.1242083 0.14712499
0000a0 2a 35 13 3f 42 0e 75 3e 66 17 02 be a2 6b f2 3b
       0.57502997 0.2393122 -0.12704238 0.0073980847
0000b0 68 34 32 3e ef 89 0c 3e e5 2d ab bc 81 bd 38 3e
       0.17402804 0.13724492 -0.020895908 0.1804104
0000c0 fd 20 10 3e 33 98 ba 3e 49 5e fd bd 6f 45 dd 3d
       0.14075084 0.36444244 -0.12371499 0.10804259
0000d0 88 cc 3e 39 2d 33 d2 3d 7b 77 e3 bd 86 3f 05 3e
       0.00018196006 0.10263667 -0.111067735 0.13012514
0000e0 42 39 20 3d bf fe 04 3d 5d f1 e9 3e 8c 3d 32 3d
       0.039117105 0.032469507 0.45691958 0.043515727
0000f0 61 da f1 3d 0b ea b3 3e 1d b9 23 3e f4 5d 23 bd
       0.118092306 0.35139498 0.15988584 -0.039884523
000100 3c f6 3f be a2 76 ed 3e 83 fb 97 3c 29 4c 81 3e
       -0.18746275 0.46379572 0.018552547 0.25253418
000110 17 9f af 3c d2 0e 3a bc 02 18 43 3d f9 a6 48 bc
       0.021438165 -0.0113560725 0.047630318 -0.012246841
000120 27 57 85 3e 2a 19 0a 3e ba d5 86 3d b1 40 63 bd
       0.26043054 0.13486162 0.06583734 -0.055481616
000130 e9 17 90 3e a6 5d ce bc 29 71 84 be 8f 70 5e bc
       0.28143242 -0.02519114 -0.25867584 -0.013576641
000140 ea 13 08 3e 21 f0 89 bd a5 a6 01 3c 0c 39 0f be
       0.13288847 -0.06735254 0.007913266 -0.13986605
000150 44 1f 4a be cf f2 51 be ef 56 9f 3d 23 d4 e1 3b
       -0.1973849 -0.2050278 0.07780253 0.0068917437
000160 f2 36 91 3e 60 eb 76 3e 9b 8a 54 3e 07 39 2f 3d
       0.28362232 0.24113226 0.20755999 0.042778995
000170 d4 34 d9 3d c7 9c e3 3c 5b 2f 68 bd 0e 0c 6e bc
       0.10605779 0.027784718 -0.056685787 -0.014529241
000180 40 d3 51 be 58 12 66 bc 43 1d 44 3e 40 69 f4 3d
       -0.20490742 -0.014042459 0.19151787 0.11934137
000190 cd a5 26 3e 1a 2e a4 bc b3 22 ce 3e 8c 67 13 3e
       0.16274185 -0.020041514 0.40260848 0.14394969
0001a0 99 1b 7b 3e 34 2e 38 3e 4e d1 06 be cb 63 0f 3f
       0.24522246 0.17986375 -0.13165781 0.56011647
0001b0 3e d8 28 be 37 a5 4e 3e d3 56 cf 3d c9 84 5e bd
       -0.1648874 0.20180212 0.10123982 -0.054325853
0001c0 e9 8d 06 3e e6 a9 79 3e 9e d5 64 bb d4 e8 a8 3e
       0.13140072 0.24381217 -0.0034917365 0.32990134
0001d0 90 c0 d2 3d d5 b2 9b 3d 7a 1a 0e 3e de 83 d1 3c
       0.10290635 0.07602469 0.13877288 0.025575574
0001e0 29 68 00 3e 36 54 f2 3e 9a 65 72 3d 24 0e 62 3e
       0.12539734 0.47329873 0.059178926 0.22075707
0001f0 ec fd d0 3d 64 c5 16 3d 09 57 84 be d8 05 68 3c
       0.10204682 0.03680934 -0.25847653 0.0141615495

network_body._body_endoder.seq_layers.10.weight f4 [128, 128]
000000 22 96 44 bc cf 9f 16 3e 7d 1b cc bc 87 7e 90 be
       -0.011998685 0.147094 -0.024915451 -0.28221533
000010 16 97 15 3d 8d e8 9f 3d 4d 94 01 3e 06 b4 34 be
       0.03652104 0.078080274 0.12654229 -0.17646798
000020 60 2f 5c 3d 15 5c 26 3d 1d 6b 00 be f0 c2 13 3e
       0.053756118 0.04061516 -0.1254086 0.14429832
000030 77 f4 be 3d 92 9d 24 3d 3e f2 39 3e 38 0e 49 3d
       0.09323972 0.040189333 0.18158814 0.049085826
000040 4e c9 00 be ef fe 87 be eb cf 43 be cd 2c 7b bb
       -0.12576792 -0.26561686 -0.19122283 -0.0038326264
000050 86 f3 91 3d a0 9a a1 be 32 31 91 be b8 96 53 be
       0.071265265 -0.31563282 -0.28357846 -0.20662963
000060 37 4b 05 3a 95 59 eb 3d f6 25 b5 bd e2 dc 86 bd
       0.0005084755 0.11491696 -0.08845131 -0.06585099
000070 f5 a6 17 be 3c 21 2e 3d 3d 4c b7 3b 12 c2 07 be
       -0.14809783 0.042512164 0.005593805 -0.13257626
000080 2b ea 3f bd de 52 80 bd d3 49 d5 bd c0 d2 6f be
       -0.04685418 -0.06265806 -0.104144715 -0.23420238
000090 d5 de da bd 3f 5b d4 3d c1 37 1b be 4b d9 79 bd
       -0.10687033 0.10368966 -0.15157987 -0.060998242
0000a0 33 3a 13 3e fc 30 92 3c d5 a2 b9 3d 0d 44 ba 3c
       0.1437767 0.017845623 0.09064261 0.022737527
0000b0 56 95 dd bd 3d 88 a5 3c 7e 95 9c be 1b f7 2a be
       -0.10819499 0.020206565 -0.30582803 -0.16695826
0000c0 dd 86 f0 bd bc c2 0a 3e 25 98 0f be a7 2d 14 be
       -0.11744473 0.13550848 -0.14022882 -0.1447054
0000d0 78 9d fa bd c5 2e 95 3c 06 9e ed bc d9 9c 43 3e
       -0.12237066 0.018210778 -0.029006016 0.19102801
0000e0 b5 38 b9 be da 9d f3 3c 44 c9 0a be 56 08 c0 be
       -0.36176077 0.029738355 -0.13553339 -0.3750636
0000f0 62 ac 84 3d 53 03 00 be 52 60 dc 3b cc 34 f1 be
       0.06478192 -0.12501268 0.0067253495 -0.47110593
000100 6e 03 a9 bd e5 c9 64 3e 1f c2 8d bd 79 49 8d bd
       -0.08252607 0.22342642 -0.06921791 -0.068987794
000110 df 54 fa bc 97 0c 32 3e a6 4f a0 bc e3 40 fa bd
       -0.030558048 0.17387615 -0.01956923 -0.122194074
000120 7e 67 52 bd 02 94 36 3d dd 30 39 be 58 19 da 3d
       -0.05136823 0.044574745 -0.18085046 0.10649365
000130 83 e3 00 3e b7 bb 0d be 63 d8 8d be 1e ca a0 be
       0.12586789 -0.13841139 -0.27704152 -0.31404203
000140 af a5 14 bd 96 07 97 bc c9 e5 76 bc d5 71 f1 be
       -0.03629082 -0.018436234 -0.0150694335 -0.4715716
000150 9d 8f 1d bd 67 dc 7c bd 8d 53 40 be e8 02 02 be
       -0.03846704 -0.06173363 -0.18781872 -0.12696421
000160 9e 86 8d be 7e 29 8b be 34 7a 69 bc 96 2e 0a 3b
       -0.27641767 -0.27180094 -0.014250327 0.0021084896
000170 20 5a 54 be f9 ca 40 be 53 4c 99 3d 94 bf f3 3d
       -0.20737505 -0.18827428 0.07485261 0.11901775
000180 cb e2 83 be f2 56 9f bd ff 63 ff bd d3 03 bf bd
       -0.25758967 -0.077802554 -0.124702446 -0.09326901
000190 02 3a 9f 3c 03 e3 63 be 66 e1 66 be a1 23 ab bd
       0.01943684 -0.22254567 -0.2254692 -0.08356405
0001a0 28 b9 25 be 1d 5f 46 3d e1 33 83 be b6 9c 6e be
       -0.16183913 0.04843055 -0.25625518 -0.23301968
0001b0 36 db fd bc 0b 84 79 be 9c 09 8d be 91 a7 50 be
       -0.030988317 -0.24366777 -0.27546394 -0.20376422
0001c0 87 da f0 3c 5e d5 65 bc 72 ed 7b 3d 4d fd bb bd
       0.029401077 -0.0140279215 0.061505742 -0.09179173
0001d0 07 e7 8e bc bc 8c 1e 3e 74 de 11 3b 25 be 3c bd
       -0.017444147 0.15483373 0.0022257837 -0.046079773
0001e0 c5 41 49 be db c3 e8 bd 65 0d 1c be a1 eb a9 bd
       -0.19653995 -0.113654815 -0.15239485 -0.08296896
0001f0 08 15 bf bc 5e 80 3f bc eb e9 5d 3d 90 6d 2a be
       -0.023325458 -0.01168832 0.05417816 -0.16643357
000200 a4 31 e4 3b 89 72 0d 3e f0 d8 55 3e eb b0 83 3c
       0.0069639254 0.13813223 0.20883536 0.016075572
000210 f3 65 b3 bc 13 17 75 be a0 e6 85 3d bf 47 04 be
       -0.0218992 -0.23934583 0.06538129 -0.12917994
000220 ce 04 62 be e1 6b e8 3d 36 e7 6f be 4e b7 16 3e
       -0.22072145 0.11348701 -0.23428044 0.14718363
000230 ec ba 13 bd 29 a9 36 3d 98 56 00 3e b9 b3 b7 be
       -0.036066934 0.044594917 0.12533033 -0.35879305
000240 9c 43 4f be 31 d4 a4 be 7b 59 24 be b7 cd 1e be
       -0.20240635 -0.3219314 -0.16049759 -0.15508161
000250 6d 7f df 3d dc 05 22 be 5a 17 ae be 22 97 ad bd
       0.109129764 -0.15822548 -0.3400219 -0.08476092
000260 0c 63 00 3e c9 00 33 3e 11 af cc be e2 51 a3 bd
       0.12537783 0.17480768 -0.39977315 -0.07974602
000270 8e 33 91 be 7e b2 99 bd 02 47 23 be 7f 4a dd be
       -0.28359646 -0.07504748 -0.15945056 -0.43220899
000280 9a 90 90 be 5e c2 87 be dd 16 81 be 87 93 0c bd
       -0.28235322 -0.26515478 -0.25212756 -0.03432038
000290 af 2c 75 be 26 4b 45 bd 4e 70 50 bd c3 cb 3a be
       -0.23942827 -0.04816737 -0.050888352 -0.18241791
0002a0 cb 01 5a bd 5b 63 42 bd e5 c6 0e bd e8 01 5b bd
       -0.053224366 -0.047458034 -0.03485765 -0.053468615
0002b0 ad 15 3e be 49 76 19 3e 1d 8f 8a bd bd 6b 3c be
       -0.18562956 0.14986528 -0.06765578 -0.18400474
0002c0 4f 38 c7 3d e3 f0 18 be c9 91 16 be 73 76 72 be
       0.09727537 -0.14935641 -0.1470405 -0.23677997
0002d0 c1 ba fb 3c e1 c0 32 3d 4d b2 ea bd 1d 80 de 3b
       0.0307287 0.043640975 -0.114597894 0.0067901746
0002e0 46 13 95 3c c8 6a 41 3c 54 6a 0e be f8 f1 bf 3b
       0.018197667 0.011805244 -0.13907748 0.0058577023
0002f0 f5 fc c9 3d 55 26 25 be e2 8a a5 bb ff c8 87 be
       0.09862701 -0.16127904 -0.0050519565 -0.26520535
000300 ea 2c 4d be a6 36 85 be 69 81 aa be 82 69 8e bd
       -0.20036665 -0.26018256 -0.33301857 -0.06953718
000310 1c 27 b2 3d 8f 73 57 be 6b 10 89 3c 34 1b 5a 3d
       0.08698866 -0.21040176 0.016731462 0.0532486
000320 1c 17 2e 3e e8 09 e1 3d 35 8f 07 be eb 11 39 be
       0.17001003 0.109882176 -0.13238223 -0.18073241
000330 87 b8 51 be 40 6d 29 be a8 48 bc be 6c 03 73 be
       -0.20480548 -0.16545582 -0.36774182 -0.23731774
000340 de 85 1d bc 1f f0 63 be 98 df 39 3e 99 43 ee bd
       -0.009614436 -0.22259568 0.181517 -0.11633987
000350 f7 71 94 bd f5 66 9a be 4f b7 7c be ca 18 34 be
       -0.072482996 -0.30156675 -0.24679302 -0.17587581
000360 21 db 3b bd bd 23 c1 bd 0f 2a 2f 3e 5f f7 83 be
       -0.045863274 -0.09430645 0.17105888 -0.25774667
000370 aa 9f 88 be c6 bc 93 bd 7a 53 39 bd f0 de f2 bd
       -0.26684314 -0.0721374 -0.045245625 -0.11858928
000380 7a 18 74 be f5 4f 81 3d bd 30 c3 bd d7 1c 38 bd
       -0.23837462 0.06314079 -0.095307805 -0.04494938
000390 88 0f e5 3d 38 73 18 be ee 5e c4 be 14 be 03 be
       0.11184603 -0.14887702 -0.38353676 -0.12865478
0003a0 46 98 f0 bd 98 3b cd bd 93 be c7 be 2d 26 b6 bc
       -0.11747794 -0.10021132 -0.39012584 -0.022235
0003b0 4d 11 50 be 98 3d f0 bd 2e 37 2b 3e 79 da 96 be
       -0.203191 -0.11730498 0.16720268 -0.29463556
0003c0 3a 33 b2 bd 8d f9 4f 3d cc 4d 2f be 13 74 1d 3e
       -0.08701177 0.0507751 -0.17119521 0.1537631
0003d0 0b 06 3b be 77 77 f4 bd f4 2b 44 3c fa ea 94 bd
       -0.18264024 -0.119368486 0.01197337 -0.07271381
0003e0 df 38 27 be ec 27 7d 3d 1c 02 f3 bd e2 ad 46 be
       -0.16330288 0.06180565 -0.11865637 -0.19402269
0003f0 70 d4 9b bd a0 95 c3 3d 2d 2c 0b 3e 24 4b 5f 3e
       -0.076088786 0.09550023 0.1359107 0.21806008

network_body._body_endoder.seq_layers.2.bias f4 [128]
000000 14 2d f2 3c 47 19 95 bd d5 21 b1 bc 32 9a 4f be
       0.02956251 -0.07280212 -0.021622578 -0.20273665
000010 45 07 cb bd a9 95 0d be f6 24 72 bc ab 53 c8 bc
       -0.09913496 -0.13826622 -0.01477932 -0.024453958
000020 8e 9e a4 3d 5f 42 94 bd 27 5a 44 bd 01 ee bc bd
       0.080380544 -0.07239222 -0.04793754 -0.09225083
000030 f0 a2 0e 3c 58 7e 10 bd c9 63 77 bd e1 f0 a3 bd
       0.0087058395 -0.03527674 -0.060397897 -0.080049284
000040 34 04 20 3d bc cc e4 3d 34 13 c8 bc cc 56 06 3d
       0.03906651 0.111718625 -0.02442322 0.03279762
000050 cd 57 82 bd 89 70 db bd bc 68 80 3d b3 4e 1d bd
       -0.06364403 -0.10714824 0.062699765 -0.03840513
000060 d9 a1 cb 3c 3e 2b 98 bd 83 ba 04 be a0 76 d2 3c
       0.024857448 -0.07430123 -0.12961774 0.02569133
000070 65 cc bd bd 55 8c bd bb 27 9e 62 3b aa 65 4b 3c
       -0.09267501 -0.005784551 0.003457913 0.012414375
000080 2d 5d 78 bd ae d0 a0 bc 63 29 47 3e 6c 58 0f be
       -0.060635734 -0.019630756 0.19449382 -0.13998574
000090 51 de 0d bd ab 7e 05 3e aa 59 8b bc 7e f0 1a bd
       -0.034635846 0.13036601 -0.017010529 -0.037827007
0000a0 e8 d0 e1 bb 51 22 f0 bd 35 4e 25 bd 42 3b 43 bd
       -0.0068913586 -0.11725295 -0.040357787 -0.047663935
0000b0 a4 c9 38 bc 2f f8 cc bd 6d a8 e5 bd c3 e8 a4 bd
       -0.011278544 -0.10008275 -0.11213765 -0.08052208
0000c0 ee 59 88 3c 42 b4 b6 bd 15 73 f6 bd 5b 7e 50 bd
       0.016644444 -0.089211 -0.12033669 -0.050901752
0000d0 67 71 4f bd a6 a9 84 bd 53 c0 4e bc 4d e4 16 bc
       -0.05064526 -0.0647767 -0.012619096 -0.009209705
0000e0 ac d9 ad bd 06 84 b5 3c 03 2f 61 bc 41 b5 8d bd
       -0.08488783 0.02215768 -0.013744119 -0.06919337
0000f0 b3 a1 b7 bd 6f d1 2f bd 83 0d 6a 3c fc 17 24 be
       -0.089663886 -0.04292434 0.014285448 -0.16024774
000100 a1 6e 1a 3e a4 b3 e3 bd 74 0b c7 bd 63 96 27 be
       0.15081264 -0.11118248 -0.097189814 -0.16365962
000110 4f 2e 9b bd 79 5b bc bc 1b c1 a8 bc fc 55 2d bd
       -0.07577192 -0.022992836 -0.020599892 -0.04231833
000120 7f bf 17 bd 53 3c e3 bb 2e 5e 37 bd 98 73 95 bd
       -0.03704786 -0.0069346814 -0.04476755 -0.072974384
000130 75 70 89 bd e8 1f 7a bd c0 3b 28 bd bb 1b 0a bd
       -0.067109026 -0.061065584 -0.041072607 -0.033717852
000140 0b fd ca bd da bf e9 bd 79 fe a1 bd 93 b6 23 bd
       -0.09911545 -0.11413546 -0.07909865 -0.03996904
000150 14 1e 03 be 44 f4 c5 bd e1 02 17 bc 32 dd ec 3b
       -0.12804443 -0.096657306 -0.009216995 0.007228517
000160 ba e7 14 bd 7c 68 4f bc e1 1e 99 bd 3a 55 9e bc
       -0.036353804 -0.012659188 -0.07476593 -0.019327749
000170 61 a4 02 be 6f 74 83 bd f4 57 bf bd 35 ea e2 3d
       -0.12758018 -0.06418692 -0.093429476 0.11079828
000180 58 c0 e2 bd f0 08 70 bd 56 99 8b bc 32 8b 42 bd
       -0.11071843 -0.058602273 -0.01704089 -0.04749603
000190 6a 43 e7 bc 2d f7 c8 bd f8 95 a6 3b fb 08 a4 3c
       -0.028230388 -0.0981277 0.0050837956 0.020023813
0001a0 e5 ab 95 bd 68 7a 64 bb cc 7f 72 bd 3b ae d1 bc
       -0.07308177 -0.0034863 -0.059203908 -0.025595775
0001b0 33 83 f8 bc ab e7 9b 3c d9 a4 85 bc cf a2 5e bd
       -0.030335998 0.019031366 -0.016313957 -0.054354485
0001c0 aa 57 01 bd e4 6f f7 bd ff 13 8b bd ae f1 9a bd
       -0.031577744 -0.12081888 -0.06790923 -0.07565628
0001d0 8c 77 4e bd a8 ce a5 3d 75 f7 a1 bd a5 cb 9d bd
       -0.050406978 0.08096057 -0.07908527 -0.07704858
0001e0 29 7b 70 bc bf 99 39 3d a8 4f 92 bd de 6a ea bd
       -0.014677801 0.04531264 -0.071440995 -0.114461645
0001f0 cf 49 a7 bd 18 32 e0 bd cc 6c 05 bc 40 99 7e bd
       -0.08168375 -0.109470546 -0.008143615 -0.06215787

network_body._body_endoder.seq_layers.2.weight f4 [128, 128]
000000 eb bc db bd bd e7 d9 bc da ff b3 bd 9e 5f 09 be
       -0.107293926 -0.02659976 -0.08789034 -0.13415381
000010 50 7c 8e 3d 5b 4a c9 3b e0 ba 8c 3a bd fa 38 be
       0.069573045 0.006142897 0.0010736845 -0.18064399
000020 56 c9 7b 3d cb 87 25 3e 99 73 15 be ad cf b6 3d
       0.061471306 0.16165082 -0.14594878 0.0892633
000030 f6 65 28 be fe 90 64 bd 3b 03 20 be 44 44 59 3d
       -0.16445145 -0.055802338 -0.15626232 0.05304362
000040 f2 80 05 be 4f 5b f5 3d fd a6 64 3c 6a 19 1d be
       -0.1303747 0.11980306 0.013955829 -0.15341726
000050 10 84 90 bd f0 ba 9b bd 57 98 16 bd 32 c9 a9 bd
       -0.07056439 -0.07604015 -0.036766376 -0.08290328
000060 dd be ea bd 36 62 08 be a8 ca 14 be 5a 71 12 be
       -0.114621855 -0.13318714 -0.14530432 -0.14301053
000070 b5 19 b3 bc 0f cb d0 bd b5 b6 11 3e 99 53 62 bd
       -0.021862844 -0.1019498 0.14229853 -0.055255506
000080 b6 d7 e6 3c 52 1b d8 bd 1c c0 a3 bd 60 6b 2f 3d
       0.02817903 -0.10552086 -0.07995626 0.04282701
000090 d0 4c cf bd aa 94 85 be a3 f0 5b be d8 13 4a be
       -0.10122073 -0.26089984 -0.21478514 -0.19734132
0000a0 48 5f 94 3d 4c ec 2d be 03 16 08 3e f9 d2 19 bd
       0.07244736 -0.16984671 0.13289647 -0.037554715
0000b0 6f b0 a4 bd 32 24 4e 3e 2f fd 7e 3c 99 9d e8 bd
       -0.080414645 0.20130995 0.015563293 -0.11358184
0000c0 fd e1 a6 bc 69 b5 2e 3c f9 4b 35 be 92 43 fb bd
       -0.020371431 0.010663369 -0.17704763 -0.122687474
0000d0 bb 0b 90 3d db 7d 06 be 2b 3c bd bc 2e 70 29 3e
       0.070334874 -0.13133948 -0.02309998 0.165467
0000e0 ea 91 af be ff a6 ea bd b5 58 58 bd 31 84 27 be
       -0.3429101 -0.11457633 -0.052818973 -0.16359021
0000f0 78 9f 02 3d a5 de 64 3c 28 26 30 3d 22 55 84 3d
       0.031890363 0.013969098 0.04300514 0.0646155
000100 ac de 9f 3d 58 e9 dd bc db 2a 8f be a0 ea aa be
       0.07806143 -0.027088806 -0.27962384 -0.3338213
000110 9e a2 bb 3c 3a 35 d1 3c ab a1 00 3d 1b b1 76 3e
       0.02290469 0.025538076 0.03140418 0.24090998
000120 ae 64 df 3d d3 3c 60 be b7 58 53 be 19 a2 08 3e
       0.10907875 -0.21898203 -0.20639311 0.13343085
000130 5b cc 48 bc c4 2a 11 3d fd 64 98 3d d2 87 4b bd
       -0.012255753 0.035441175 0.07441137 -0.049690075
000140 8d ad 8e be 66 a6 1f 3d c1 e3 f9 3c a4 06 d9 3b
       -0.27866784 0.03897705 0.03050411 0.006623106
000150 de 4b 9a be 4b 96 ac 3d c2 67 8a bc d9 7d 38 bb
       -0.30136007 0.084271036 -0.016895179 -0.0028151183
000160 4b 56 d3 bd 0b f6 52 bc 04 86 86 be 79 cc f3 3d
       -0.103191935 -0.012876044 -0.2627412 0.119042344
000170 32 b0 5d 3d 47 b2 34 bd 05 a1 55 3d aa f5 f5 3d
       0.05412311 -0.04411533 0.052155513 0.12009747
000180 72 b9 4b 3b 1d fd ab bd ae 53 bc bd 7a 97 9a bd
       0.0031085876 -0.08397887 -0.09195648 -0.07548423
000190 1c 84 ad bc 98 53 00 3e 3d 0c 11 be af bd 4b 3d
       -0.021181159 0.12531888 -0.14164825 0.049741443
0001a0 9c 61 b7 be fb 52 07 be 19 7f be 3c bd 84 b3 bd
       -0.35816658 -0.13215248 0.023253964 -0.08765552
0001b0 27 3c 3c bd ad 47 66 bc 48 ea 87 bc b7 e8 fe bc
       -0.045955803 -0.014055175 -0.016591206 -0.031116826
0001c0 08 bc fd 3b d8 89 bb bd 26 71 03 bd 66 8b 83 3c
       0.0077433623 -0.09157151 -0.03209033 0.016057681
0001d0 30 4f 11 be cb 7e 4e bd fe d0 3a be ec 42 94 3d
       -0.14190364 -0.050413888 -0.18243787 0.07239327
0001e0 99 8d a5 3d 59 33 ed 3b 49 75 37 be bc 63 81 3d
       0.08083648 0.007238787 -0.17915834 0.06317851
0001f0 bd 21 ab bd 42 b0 8e bd f4 65 15 be 58 1b 29 bd
       -0.083560444 -0.06967212 -0.14589673 -0.041285843
000200 71 d0 39 3e 2e a5 2f 3c 19 39 87 3c c8 b2 11 3e
       0.1814592 0.010720534 0.016506718 0.14228356
000210 f0 6d df 3d f9 03 6b 3e 34 b8 bf bd 56 23 19 3d
       0.10909641 0.22950734 -0.09361306 0.037387215
000220 ff f6 28 3e 73 f3 04 be fd 70 77 3d a5 6c e1 bd
       0.16500472 -0.12983494 0.06041049 -0.110070504
000230 5a f7 f0 bd 45 bd 2e be a5 6c 4d 3e 5e 65 18 3e
       -0.117659286 -0.17064388 0.20060976 0.14882419
000240 40 5c eb 3c 29 a8 2f 3e f5 27 e9 bd e2 84 ae 3d
       0.028730512 0.17153992 -0.11384574 0.08521439
000250 7c a7 49 be 01 d8 0f be f3 2d 63 be 1b 0f 64 3e
       -0.19692796 -0.14047243 -0.22185497 0.22271387
000260 e6 6a de 3e c3 f6 e4 bc d5 e9 4a bd a1 2e 0e 3d
       0.43440932 -0.027949696 -0.049539406 0.034712438
000270 4e a1 2c 3e 5c 5d 03 be fd 4f 53 3d dd 4f ac 3d
       0.16858408 -0.12828583 0.051589955 0.0841367
000280 78 60 9a 3d 02 d4 b3 be 97 a0 7a be 59 9b 50 be
       0.07537931 -0.35122687 -0.24475323 -0.2037176
000290 cc 1d 95 bd f7 b7 c5 bd d9 f1 0d bd 3c b7 3f bc
       -0.07281074 -0.09654229 -0.034654472 -0.011701401
0002a0 eb ad a2 bc c9 74 26 3d d2 96 86 be 37 c5 c7 bb
       -0.019858321 0.04063872 -0.26286942 -0.006096508
0002b0 ac 41 f5 3d 8b 86 4b 3c 70 6a 10 bc 78 3d 24 bd
       0.119754165 0.012422214 -0.008814439 -0.040097684
0002c0 04 a0 b4 bd 81 9b 51 3d ea 32 74 bd f5 29 51 be
       -0.08819583 0.05117369 -0.059618868 -0.20426162
0002d0 0c 3a 5f bd e3 73 e6 3c f9 a7 18 3d 83 a6 47 be
       -0.054498717 0.028131431 0.037269566 -0.19497113
0002e0 c4 ca 47 3e a0 6d 40 3e f4 8a ae bd 4b ed 9b bd
       0.19510943 0.18791819 -0.08522597 -0.076136194
0002f0 3c 41 82 3c b1 cc 72 3e 00 13 20 be de 91 7a bd
       0.015900247 0.23710896 -0.15632248 -0.061174266
000300 c6 39 a6 3d 52 54 e8 bd 90 10 92 3d aa 11 08 3d
       0.08116488 -0.11344208 0.07132065 0.03321997
000310 20 e6 67 be f6 13 c6 3d a4 9e f0 bd 78 32 7b 3d
       -0.2264638 0.09671776 -0.11749008 0.061327428
000320 f5 24 ec 3d 22 2b 01 be 3c dc 16 3c f4 e7 db 3d
       0.115304865 -0.1261411 0.009207781 0.10737601
000330 a0 72 ac 3d fb 80 74 be 39 b5 88 3d 56 81 48 3c
       0.084203005 -0.23877327 0.066751905 0.012237867
000340 19 28 6f 3d 79 9c 21 3e 07 5d d5 3d 15 a8 4d be
       0.05838785 0.15782346 0.10418134 -0.2008365
000350 8b 0d 8d bd 00 95 1a be c1 48 84 bd 32 ea 0f be
       -0.06887349 -0.15095901 -0.06459189 -0.14054182
000360 bb 56 1e be ba 0e 76 bb ce da db 3d 7c 81 0b be
       -0.15462773 -0.0037545399 0.10735093 -0.13623613
000370 53 e5 95 3c 8e 56 3b 3e 8e 6e 9f bb bb 3b 9f bc
       0.018297827 0.18294737 -0.004865474 -0.019437661
000380 d0 75 a9 bd 5f 3f d4 bd 6c fd 9c be c5 27 14 be
       -0.08274424 -0.103636496 -0.30662096 -0.14468296
000390 7c 45 71 3d 71 e2 04 be 1d ec 2a 3c b3 5b 08 be
       0.058904156 -0.12977006 0.01043227 -0.1331623
0003a0 77 32 15 be 7a f9 ee 3d d1 43 40 3d e7 5d 1c 3d
       -0.14570032 0.11668678 0.046939675 0.03817549
0003b0 14 6e 01 3e 90 49 b6 3d bb 0f 96 3d 61 1d 76 be
       0.12639648 0.0890075 0.07327219 -0.24034645
0003c0 dd 4d 32 be 68 97 78 bd e1 93 2c 3e ec a1 07 3e
       -0.17412515 -0.060691267 0.16853286 0.13245362
0003d0 6e a4 73 bd 17 8e 3a bc ff c7 d8 bd 44 d2 32 be
       -0.059482984 -0.011386416 -0.10585021 -0.17463022
0003e0 25 07 08 be fa e3 2a be d6 b5 58 bd ab 67 d6 3d
       -0.13283975 -0.16688529 -0.052907787 0.10468992
0003f0 af c1 5c 3e 92 16 56 be 75 84 4a 3d 1c 7b c0 be
       0.2155826 -0.20907047 0.049442727 -0.37593925

network_body._body_endoder.seq_layers.4.bias f4 [128]
000000 dd a1 83 bd 5f 9e 53 bb 27 c4 9a bd 0d a1 55 bd
       -0.06427357 -0.0032290441 -0.07556944 -0.052155543
000010 fd d5 d7 bd af db 30 bd 93 6d c6 bb 84 ae d7 bc
       -0.10538862 -0.043178257 -0.0060555427 -0.026328333
000020 35 46 ca bd 1b 40 4b be 34 3f c6 bd 0c df f7 3d
       -0.09876672 -0.19848673 -0.09680024 0.1210309
000030 db 13 73 be 91 6b 7e 3c 27 74 49 be d4 87 01 3e
       -0.23738043 0.0155285755 -0.19673215 0.1264947
000040 d3 4a 8d bd de 23 c9 bc 82 9a b7 3c 4a 25 00 be
       -0.06899037 -0.024553236 0.022412542 -0.12514225
000050 f4 cb d0 bd 33 6d d2 3c f5 79 61 3e 2f 39 de 3c
       -0.10195151 0.025686836 0.22019179 0.027126877
000060 0b 62 7f bd ab df 50 3c 80 8c 85 bd f5 63 12 3e
       -0.06234936 0.012748639 -0.06520939 0.14295943
000070 22 64 0b be d8 49 69 3e a9 90 b9 bc e8 1a 31 be
       -0.13612416 0.22782075 -0.022651987 -0.1729542
000080 8c 87 4d bd ab bc 27 be 16 c4 65 bc 38 4e 2b be
       -0.050178096 -0.16380565 -0.014023801 -0.16729057
000090 f5 05 bb bc 52 96 53 bd b4 26 b9 3d 37 75 15 3e
       -0.022829989 -0.05165703 0.09040585 0.14595495
0000a0 b5 00 cc bd ff 1a 1c be be 99 ff bc 85 2b a9 bc
       -0.09961072 -0.15244673 -0.03120124 -0.020650635
0000b0 76 39 b9 3b fd 9b f4 3d f4 08 9e 3c 31 45 2f bd
       0.005652602 0.11943815 0.019291379 -0.042790595
0000c0 55 24 08 be 53 8e 14 be 1a c8 db 3d 10 9b 7c 3d
       -0.1329511 -0.14507417 0.10731526 0.061671317
0000d0 0d 3a 99 bd f9 24 9a bd 2c 52 f8 bc c5 c9 a4 bc
       -0.074817754 -0.07526583 -0.03031262 -0.020115742
0000e0 ff d0 c8 3d 0a 6f 18 bd 13 54 f9 bd 9d 7f 8d 3c
       0.09805488 -0.03721527 -0.12174239 0.017272765
0000f0 72 00 52 3c 87 b8 37 bd fd 3c 63 bc 2e 11 96 bd
       0.012817489 -0.044853713 -0.013869521 -0.073274955
000100 9a 8d 33 3d 11 a3 f7 3d 5d 49 05 3d 81 e9 09 be
       0.043836214 0.12091649 0.032540668 -0.13467981
000110 a1 8a f7 3d 41 cb 3c 3c 50 39 d3 3d 28 2e 5d bd
       0.12086988 0.011523069 0.10313666 -0.053999096
000120 b2 08 a3 bc 3f 19 b5 bd f6 19 3a be 90 e0 9d bc
       -0.019901607 -0.08842706 -0.18173966 -0.019272119
000130 8b c5 37 be f9 09 76 3e 5e 80 64 3d 92 2e dc bd
       -0.1794645 0.24027242 0.055786483 -0.1075107
000140 07 57 4b be c0 8e 8f 3e ff 6a 53 be a9 26 dc 3d
       -0.19857417 0.28038597 -0.20646285 0.10749561
000150 e6 9a 7b bd e0 55 94 bd f0 d7 07 3e 4b eb 23 3d
       -0.06142702 -0.07242942 0.13265967 0.040019315
000160 4d 53 10 3d bf 65 15 bd 4b 25 06 bd f8 d3 f3 3c
       0.03523569 -0.036473986 -0.03275041 0.02976416
000170 f7 20 25 be 6e 79 4a 3d 1d cc 3b bd b7 a1 71 3d
       -0.16125856 0.04943221 -0.045848954 0.058992114
000180 dc fb 4e 3c ba d5 73 be f4 0c 99 3d d0 17 0b be
       0.01263329 -0.23811999 0.07473174 -0.13583302
000190 40 dc 48 3e a4 f8 86 3c 9e 48 bc bc 02 f2 a0 bd
       0.19615269 0.016475983 -0.022983845 -0.07858659
0001a0 dd ac d4 bd 82 f7 4a be 71 19 59 bc 44 84 60 bd
       -0.103845336 -0.19820979 -0.013250695 -0.05481364
0001b0 7e a6 c2 bd d7 54 0a 3d 89 31 4d be 8b c1 59 bd
       -0.09504412 0.033772316 -0.20038427 -0.053163093
0001c0 93 b6 a3 bc ea 8f 5e bd bf fa 9a 3d c1 e1 5e 3d
       -0.01998452 -0.054336466 0.07567357 0.054414514
0001d0 cd 8f 3c 3d 44 60 f3 bd 8e f0 5e 3e e5 36 e7 3a
       0.046035577 -0.118835956 0.21771452 0.0017640261
0001e0 fe 12 c8 bd 81 02 5a bd 99 21 29 3d 8f 4f cf 3a
       -0.097692475 -0.053225044 0.041291807 0.0015816557
0001f0 7b b2 90 3c c6 c1 18 3d ef 88 9d 3d c9 36 e0 bd
       0.017663231 0.03729417 0.07692134 -0.109479494

network_body._body_endoder.seq_layers.4.weight f4 [128, 128]
000000 d8 bf 43 bd ae 9e c5 be bc 53 08 bc 26 12 bf bd
       -0.04779038 -0.38597625 -0.008320745 -0.093296334
000010 f7 55 03 bd 27 8a 59 bd 1f b1 16 bd ae 7e 49 3c
       -0.032064404 -0.053110268 -0.03679001 0.012298269
000020 74 57 71 bd 58 26 31 bd 23 86 ea bd 8f d3 8a be
       -0.058921292 -0.043249458 -0.11451366 -0.2711453
000030 11 ba 33 3d b8 c4 46 bd 0d a4 45 3d 54 76 d0 3d
       0.04387862 -0.04852745 0.048252154 0.10178819
000040 d9 c5 ff 3b 1b f1 8c 3d b8 f1 8d bd 78 b4 c1 3b
       0.0078055677 0.06881925 -0.0693087 0.005911406
000050 bb 4d 84 be db 9c 0d be 7d 11 0c 3d 7e a5 0d 3d
       -0.25840554 -0.13829367 0.034196366 0.034581654
000060 a7 8d c8 3d 6d 51 45 bd a2 c4 d5 3c 1e 8d 94 3d
       0.09792643 -0.048173357 0.026094738 0.072534785
000070 74 e8 fc bd 19 f9 15 be 0c 36 a9 3d 54 c3 9a bd
       -0.123490244 -0.14645804 0.08262262 -0.07556787
000080 31 9e d5 3d 6b 38 04 bd 01 e0 25 be ce 28 9f bd
       0.10430563 -0.032280367 -0.16198732 -0.07771455
000090 c3 0f e6 3d 33 59 2e 3d 0d f9 c6 3d 65 4c 21 3d
       0.11233475 0.042565536 0.097154714 0.039379496
0000a0 6e b3 a2 bd 5a 73 ae be 04 0b 54 bd 8b 85 b7 bd
       -0.0794438 -0.3407238 -0.051768318 -0.08961018
0000b0 96 05 76 3d 93 cf a5 bd 1c 83 87 bd d9 5e fe 3c
       0.06006392 -0.08096232 -0.06616804 0.031051086
0000c0 c5 94 c1 3d 41 04 12 3d dc 8f 70 be 27 71 46 be
       0.09452204 0.035648588 -0.23492378 -0.19379102
0000d0 f3 45 5e 3d 89 47 5a be 12 52 e9 bd 81 ce 04 be
       0.054265928 -0.21316351 -0.11392607 -0.129694
0000e0 9f 22 5c bd 22 78 1c be 20 10 ce bc 1c fb 18 be
       -0.053743955 -0.15280202 -0.025154173 -0.1493954
0000f0 a4 cc ae bd cc 34 ce 3d cb df 94 be 75 a7 f6 3d
       -0.08535126 0.10068664 -0.2907699 0.12043659
000100 d8 e6 e2 bd 63 8e 6c 3c d2 b4 66 bc 20 15 15 be
       -0.11079186 0.0144382445 -0.014081197 -0.1455884
000110 e3 22 b0 bd 5d 0a d1 bd 8b 3e 10 bd 1d b0 f2 bd
       -0.08600404 -0.10207055 -0.035215896 -0.11849997
000120 5a 01 24 be b3 1e 79 bd 87 8a b7 bd d0 33 ba 3d
       -0.1601614 -0.060820293 -0.08961969 0.09091914
000130 d0 a4 c3 3d 3d a6 80 3d 2b 48 27 bd 52 cc ca 3d
       0.0955292 0.062817074 -0.04084031 0.09902252
000140 bc 6f 24 bd 8e c8 5b 3d 5c ac 63 bd 50 bc 53 bc
       -0.04014562 0.05365806 -0.055584297 -0.012923315
000150 3f 1c 16 3d 3f 4f 38 be 53 2e 45 bd cc 48 56 3c
       0.03664803 -0.1799898 -0.04813988 0.01307888
000160 cf 42 38 3e ae 43 ac bd a6 1f 8a bd 80 23 ba bc
       0.17994235 -0.084113464 -0.06744318 -0.022722006
000170 7f 7e 2b bd de 84 7b 3d a3 ad 22 bd a2 56 99 3e
       -0.041868683 0.06140601 -0.039716374 0.29948908
000180 62 86 82 3c 0f 8e 42 bd a2 f2 a1 3d 18 53 5a be
       0.01593322 -0.04749876 0.07907607 -0.2132076
000190 2a 4d 74 bd 46 5a dc bd 92 00 90 3d 34 e1 6d 3d
       -0.059643902 -0.10759406 0.07031359 0.0580761
0001a0 53 4e ab be a5 6d 08 3e 62 c1 d1 bd 2d 0d c8 bd
       -0.33458194 0.13323076 -0.10241963 -0.09768138
0001b0 2e 1b 89 3e 3e 44 fd bb 40 70 1a be f4 93 2b be
       0.2677855 -0.0077290824 -0.15081882 -0.16755658
0001c0 fd 1e bc bd c7 56 4e be d4 f2 17 3e 87 72 b7 bb
       -0.09185598 -0.2015029 0.14838725 -0.0055983695
0001d0 f4 10 e7 bc 76 1b d8 bd a3 6b a9 bd 71 5d 8f bd
       -0.028206326 -0.10552113 -0.08272483 -0.070002444
0001e0 e0 1f 64 3c af 94 71 3d 85 3f 39 bd 41 fb 5e 3c
       0.013923615 0.058979686 -0.045226593 0.013609708
0001f0 de 11 41 be 74 6e 86 3c 0c 29 fe bc cb 1b 19 b9
       -0.18854472 0.01641009 -0.031025432 -0.00014601571
000200 f0 b9 96 3d f1 12 f4 bc 13 d3 84 3d 38 34 5c 3d
       0.073596835 -0.029794188 0.06485572 0.053760737
000210 19 f1 b4 3b e2 94 76 3d 9a 01 37 be c1 47 2f bd
       0.005521905 0.06020058 -0.17871705 -0.04279304
000220 53 c6 48 be aa da da bd a6 5c d4 bc 43 c5 01 bd
       -0.19606905 -0.10686238 -0.025923084 -0.031682264
000230 c0 3f e7 3d 3d 22 3b 3c c1 3f 47 3e 29 25 2a 3d
       0.11291456 0.011421737 0.19457914 0.041539345
000240 fe d2 f7 3c 5c a2 7b bd 49 a4 47 3e 6b 4c 9e 3d
       0.030251976 -0.061434135 0.19496264 0.07729419
000250 04 82 c7 bd ac eb 88 3e 3a dd f7 bd 5a 7a a9 bd
       -0.097415954 0.26742303 -0.121027425 -0.0827529
000260 54 74 8a 3d 76 2c 51 bd c1 a2 c0 3d 7c 5e c4 bc
       0.06760469 -0.051067792 0.09406043 -0.023970835
000270 ff 43 75 3d b5 89 98 bd c8 c3 8d bd ba 5a e9 be
       0.0598793 -0.074481405 -0.06922108 -0.4557703
000280 66 ba 1c 3e 17 98 08 bd fa d0 9a 3d 1b 5a 86 bd
       0.1530548 -0.03334817 0.0755939 -0.06560155
000290 74 8f 01 3d 16 62 90 bd df ab fd bd c7 f1 3d bd
       0.03163095 -0.070499584 -0.123862974 -0.046373155
0002a0 d2 73 64 3d e0 71 0b be fd 14 61 3d c5 74 71 3d
       0.055774517 -0.13617659 0.054951657 0.05894925
0002b0 b7 97 5a bc dd 54 e6 bb e4 a8 4c 3c 81 67 05 be
       -0.013341836 -0.0070291595 0.012491439 -0.13027765
0002c0 4c f1 42 3d 11 0f b7 3c 47 d4 62 3e db 93 30 bc
       0.0475934 0.022346051 0.2215129 -0.010777439
0002d0 aa 6b b0 bc 54 3a 0a be d3 5a 8f 3c 86 5a 36 3c
       -0.021535713 -0.13498813 0.017499363 0.011129981
0002e0 80 81 34 bd 53 74 08 3e 5f e7 93 bc 78 a2 ee bd
       -0.044068813 0.13325624 -0.018054662 -0.11652082
0002f0 20 6b 7c 3e 7d ac 7f 3d e3 9c 7a 3d ee c1 c9 3d
       0.2465024 0.062420357 0.061184775 0.09851442
000300 e4 79 d3 3d 1e 1e c9 3d 56 8c e3 bd c2 ac bd 3d
       0.10325983 0.098201975 -0.11110751 0.092614666
000310 2c 50 88 3d c1 fa cf 3d 72 5d bd bb 44 13 bc bd
       0.066559166 0.101552494 -0.005778962 -0.09183362
000320 6a 33 2f 3e 32 a9 84 3c 5d 10 d6 3d d4 f9 eb bd
       0.17109457 0.01619396 0.1045234 -0.1152226
000330 f9 53 ff bd 2d 35 22 3e c9 ae 2e 3d b0 e1 51 3e
       -0.124671884 0.15840597 0.042647157 0.20496249
000340 33 df e7 bb 45 6a 25 be 35 3f 10 3b e6 9f 2b be
       -0.007076168 -0.1615382 0.002201033 -0.16760215
000350 47 3d 5a 3e c5 ef 53 be 34 c9 97 bd 75 22 ca bc
       0.21312438 -0.20696934 -0.07411423 -0.024674634
000360 1a 90 3f bd 4b 53 d1 3e 83 b2 17 bc 97 f5 54 bd
       -0.046768285 0.4088386 -0.009258869 -0.051992025
000370 43 18 13 be d8 e1 e6 bd 5b ac 3a bd 85 4c 36 3e
       -0.14364724 -0.11273545 -0.045574527 0.17802627
000380 e8 a3 e9 3d 9b 58 0d be 09 c5 3a bd ec 4b f1 bd
       0.11408216 -0.13803332 -0.045598064 -0.11782059
000390 2b 74 7f bd bc 59 46 bc e5 7b 19 be a3 56 d7 3b
       -0.062366646 -0.012106355 -0.14988668 0.006571607
0003a0 51 85 4a bc 8f 23 f3 3d 3e f6 9f 3d 13 2c 76 3d
       -0.012360887 0.11872017 0.07810639 0.060100626
0003b0 38 38 8d bd 26 b0 b9 bd 45 0a 3e bd 21 21 d7 3d
       -0.068954885 -0.09066801 -0.046396513 0.10504366
0003c0 43 55 90 bc 91 63 2a be 15 64 77 3d 66 bf 6c 3d
       -0.017618781 -0.16639544 0.06039818 0.05779972
0003d0 7f d1 c9 3c f5 9c 80 3d b2 d3 9b 3d 46 92 35 bd
       0.024636028 0.06279937 0.07608737 -0.04432895
0003e0 cb be 07 bd a2 b6 6f bd 5c 9c 4c bd cb 5f 20 3d
       -0.03314094 -0.05852378 -0.049953803 0.039153855
0003f0 46 62 bc bc 75 0b c1 bd e3 0c 47 3c 2e 93 83 3c
       -0.02299608 -0.094260134 0.0121490685 0.016061392

network_body._body_endoder.seq_layers.6.bias f4 [128]
000000 9b a2 7c be c1 66 36 3e 80 2f a3 3e fc 5e 9f bd
       -0.24671404 0.17812635 0.31872177 -0.07781789
000010 7f 82 83 3c 79 a5 2f 3e 56 42 b3 bd 88 87 ab bc
       0.016053436 0.17152967 -0.08752887 -0.02093865
000020 fc b0 f7 bd 1d 0c 08 bd bb 78 e6 bd e1 00 96 bd
       -0.12094304 -0.033214677 -0.11253496 -0.073243864
000030 31 3f 28 be df 5c ff bc b4 d6 a6 bd 08 26 36 bb
       -0.16430356 -0.031172214 -0.0814642 -0.0027793664
000040 4c 91 c9 bd 22 31 02 be db 3d ac 3c 28 96 4d bd
       -0.09842166 -0.12714055 0.021025589 -0.05019203
000050 1c ab 8e bc 81 8f 72 3e 5a 6a c8 3c a5 6e 2b bd
       -0.017415576 0.23687555 0.024464775 -0.041853566
000060 8f 7c 35 3e 74 32 17 be 02 80 90 bd e0 cd 12 bd
       0.17723297 -0.1476534 -0.070556656 -0.03584087
000070 c8 e3 82 bd 6f e2 d3 bc 88 57 dd bd 47 70 4c bc
       -0.06391102 -0.025864808 -0.10807711 -0.012477941
000080 bf 31 80 3e af 3f 51 bd 3b 3c d1 bd df 21 a9 bd
       0.25037953 -0.051086124 -0.10216566 -0.082584135
000090 b0 a0 78 bd 31 b0 68 bc 59 77 cb 3c 60 49 c0 bd
       -0.06070012 -0.014202164 0.024837183 -0.09388995
0000a0 e0 dc 0f 3c f7 b8 bf 3b ed e7 70 3e 7a 23 d2 bd
       0.008780688 0.005850907 0.23525973 -0.10260673
0000b0 0f 02 0b 3e c2 eb c1 3c ab 9d f4 bd 06 92 ed b9
       0.13575004 0.023671988 -0.11944135 -0.00045312959
0000c0 a2 a8 39 3d 0c 6d 28 3d 92 9d 3f bd e4 ce 89 3b
       0.045326836 0.04111962 -0.04678113 0.0042055715
0000d0 29 12 9f bd 68 2b d4 bd 09 b9 b1 bd 2f 85 78 3e
       -0.07767136 -0.103598416 -0.08677871 0.24269556
0000e0 51 15 bf bd a8 81 2e be c9 65 7c 3d 44 0e 28 3e
       -0.09330238 -0.17041647 0.061620507 0.16411692
0000f0 81 71 09 bd 11 62 3b bd 60 0c 82 bd 4c b5 c0 bd
       -0.03355551 -0.04574782 -0.063500166 -0.0940958
000100 a3 b6 09 be da 0c b8 bd 5b d9 dc bd b2 1b 10 3c
       -0.13448577 -0.08986826 -0.10783645 0.008795666
000110 71 44 28 bd 7b 09 c7 bd c8 28 02 bc e4 09 ac bd
       -0.041080896 -0.09718605 -0.007944293 -0.08400324
000120 9d 7f 1c 3e 8e b3 4b bc f7 69 98 3e 17 b8 43 bd
       0.15283056 -0.012432946 0.29768345 -0.047782984
000130 55 21 c7 3d 2e 9f 5d 3c 43 8a 69 3d 05 ab ec bc
       0.097231545 0.013526721 0.057016622 -0.028890142
000140 2d 0d 2d bd fe c0 44 3c e1 68 83 bd 9e 7d ec bd
       -0.042248894 0.012008904 -0.064164884 -0.11547397
000150 93 65 75 bd 21 4a 8e 3d 9f c4 d3 bc 3f 39 9d bd
       -0.05991132 0.06947733 -0.025850592 -0.076769345
000160 81 ea cb bc f5 d9 77 3e 82 f0 25 bd 1b 91 2c 3d
       -0.024892094 0.24204238 -0.04051257 0.04213057
000170 bd e4 4b 3c 0f 79 27 bd b1 bd c2 bc d5 e7 25 bd
       0.012444672 -0.040886935 -0.023772093 -0.040504295
000180 19 6b b1 3e 31 ee 4f bc e5 d7 ce bd ba 3d 25 be
       0.34652022 -0.012691067 -0.10099772 -0.16136828
000190 00 23 51 bc d8 42 c5 bd af 14 c1 3e f1 53 51 3e
       -0.012764692 -0.0963189 0.37711093 0.20442177
0001a0 cf 83 3b bd 36 5d 04 3e 2f cb a3 3d 02 4b e0 bd
       -0.04578 0.12926182 0.079977386 -0.109518066
0001b0 eb 03 2b bd a4 2b b4 bd 74 69 47 3d 1b ed 5e 3e
       -0.041751783 -0.08797386 0.048684552 0.21770136
0001c0 ea 39 12 3d 99 34 be bd a5 3d 69 be d6 6f ca 3d
       0.035699762 -0.09287376 -0.22777422 0.09884612
0001d0 4f f8 a9 bd 42 72 8b 3d fb 06 1c be 0e 53 70 bd
       -0.08299314 0.06808902 -0.15237038 -0.058672957
0001e0 c0 74 01 bc ec ca 95 3e e9 d8 09 be 63 01 32 bc
       -0.0079013705 0.2925638 -0.13461651 -0.010864588
0001f0 dc bc 82 be 47 99 4a 3e 59 6a c5 3d 39 c0 f5 bc
       -0.25534713 0.19785033 0.09639425 -0.029998885
