Assets/DodgeMissile-5000010Last.onnx (onnx, 209347 bytes, 11 tensors)

action_model._continuous_distribution.log_sigma f4 [1, 2]
-0.6133251 -0.54634684
00000000: e002 1dbf 63dd 0bbf

action_model._continuous_distribution.mu.bias f4 [2]
-0.054126307 0.3682712
00000000: 8cb3 5dbd 0b8e bc3e

action_model._continuous_distribution.mu.weight f4 [2, 128]
-0.13967288 0.21028207 0.20459712 -0.15120947 -0.0032169863 0.18786125 -0.039493904 0.20782778
0.09009366 -0.25528893 0.01144704 0.05312306 0.20175071 0.12804028 -0.28943494 -0.20919527
0.10758732 0.05082348 0.07256692 0.19967362 -0.089431755 0.115560144 0.02526949 0.051639132
0.20505974 0.120938905 0.11214367 0.08118445 0.015741412 0.208565 0.008042685 0.20395444
-0.020950941 -0.18840815 -0.27378708 -0.06305062 0.009811768 0.21834351 -0.20894782 0.14096394
-0.30004916 -0.059783597 -0.05262903 0.17895952 -0.13809429 0.10677921 0.18011552 0.27125305
0.13060012 0.09278163 0.11132345 0.06197505 0.12057501 0.010945659 -0.008843105 0.27136916
-0.04453639 -0.0714755 0.22405143 0.05872679 0.06162384 0.24853477 0.03731444 -0.031217882
-0.017457062 -0.028990874 0.0050100363 0.0055690557 0.13559836 0.12066417 0.070276216 0.16812766
-0.19469227 0.21691145 -0.019598462 0.043412168 0.14818956 0.011871156 0.075031936 -0.12814723
-0.076686576 -0.0996395 0.069589235 0.09133514 -0.25002515 0.22895955 0.09235996 0.03172277
0.05276302 -0.14991789 -0.03477512 -0.0035281077 -0.06689078 -0.16567995 0.025683528 0.2668014
0.014770825 -0.3287175 0.22922309 0.22133112 0.24901764 -0.23580238 0.10649188 0.18885608
0.14423405 0.062921524 0.15710284 0.09827428 0.09537887 0.3379917 -0.21845731 0.00189438
-0.0063046175 0.30257136 0.08169934 -0.10677487 0.13906533 0.0009676364 0.21770361 -0.31238252
0.123847514 -0.23147775 0.16151701 -0.16952571 -0.013942103 -0.15826562 0.0005479566 0.18692192
-0.12631099 -0.17171858 -0.00052524614 -0.073273785 -0.026196102 0.03519893 -0.048686076 0.09300555
-0.22853681 -0.17712353 -0.22999877 -0.16762732 -0.009080988 -0.20540778 -0.15747401 -0.1611292
0.0712303 -0.21496144 -0.1867418 -0.012996273 -0.25440925 -0.14978601 -0.2666745 -0.14896804
-0.07830808 0.07296654 0.0005066747 -0.20528795 -0.24480967 -0.06850716 -0.026889533 -0.08299689
-0.16556083 -0.2006594 -0.06813549 -0.18946502 -0.16980816 -0.061725166 -0.08463498 0.049070023
-0.23369777 -0.021124927 -0.19945663 -0.030761411 -0.05314501 -0.26361692 -0.031254206 -0.3016451
-0.15794225 0.042756476 -0.011157939 -0.12669492 -0.14047372 0.063258804 -0.29722103 -0.05474279
0.14441167 0.060725335 0.1658543 -0.11869699 -0.15389556 -0.10029345 -0.20678383 -0.1585684
-0.23489566 -0.09521855 -0.26972386 -0.1391718 -0.060128726 0.024757642 -0.27355444 -0.076976374
-0.10881115 -0.06615488 -0.2929884 -0.23486784 -0.1965728 -0.13371232 -0.14481167 0.029037574
-0.04707073 -0.24445552 -0.22019248 -0.14601679 -0.14371826 0.023873886 -0.18087171 -0.32535034
-0.21144369 -0.027617846 -0.2365936 -0.06632162 -0.2642271 -0.20458011 -0.1360973 -0.110258795
-0.2643361 -0.2641997 -0.12459382 0.00576074 -0.1283626 -0.20080064 -0.15358694 -0.07522991
-0.13981503 -0.04977628 -0.22354259 -0.22336143 0.036335833 0.052354436 -0.17547476 -0.24756508
-0.13388667 -0.03863395 -0.1775124 -0.09484519 -0.037664585 -0.24994263 0.024052504 -0.15942608
-0.08803627 -0.05258818 -0.037744064 0.0986209 -0.18395634 -0.15973432 -0.13643698 -0.08870051
00000000: 6806 0fbe 2f54 573e e881 513e a8d6 1abe
00000010: 13d4 52bb b35e 403e 5cc4 21bd ced0 543e
00000020: 0683 b83d 3bb5 82be 5e8c 3b3c 9197 593d
00000030: bd97 4e3e fe1c 033e d130 94be 4937 56be
00000040: be56 dc3d 482c 503d f79d 943d 3e77 4c3e
00000050: ff27 b7bd ccaa ec3d f601 cf3c 8e83 533d
00000060: 2efb 513e d1ae f73d 95ab e53d 0844 a63d
00000070: 22f4 803c 1092 553e 77c5 033c 6fd9 503e
00000080: 4fa1 abbc 11ee 40be d22d 8cbe af20 81bd
00000090: 8ac1 203c 7195 5f3e 6bf6 55be da58 103e
000000a0: 0ba0 99be a5df 74bd 8a91 57bd 2a41 373e
000000b0: 9768 0dbe 0faf da3d 3470 383e aee1 8a3e
000000c0: 0abc 053e 4c04 be3d 8dfd e33d 8dd9 7d3d
000000d0: 08f0 f63d 6c55 333c ace2 10bc e6f0 8a3e
000000e0: ca6b 36bd bf61 92bd bd6d 653e 818b 703d
000000f0: 4869 7c3d e67f 7e3e 07d7 183d a5bc ffbc
00000100: 1d02 8fbc 457e edbc 3b2b a43b a07c b63b
00000110: 4cda 0a3e c71e f73d faec 8f3d a829 2c3e
00000120: 695d 47be 091e 5e3e f48c a0bc f5d0 313d
00000130: 01bf 173e 3d7f 423c 58aa 993d 0739 03be
00000140: da0d 9dbd cb0f ccbd cd84 8e3d eb0d bb3d
00000150: 4c03 80be 5f74 6a3e 3827 bd3d bcef 013d
00000160: 091e 583d 1384 19be 5b70 0ebd d337 67bb
00000170: 09fe 88bd 01a8 29be 4366 d23c 319a 883e
00000180: 5501 723c a94d a8be 75b9 6a3e a0a4 623e
00000190: 7bfe 7e3e 2e76 71be 6a18 da3d 7d63 413e
000001a0: 17b2 133e 00dd 803d 91df 203e 0744 c93d
000001b0: ff55 c33d 400d ad3e 46b3 5fbe d84c f83a
000001c0: f796 cebb a2ea 9a3e fc51 a73d c8ac dabd
000001d0: 2467 0e3e fba8 7d3a b2ed 5e3e 9af0 9fbe
000001e0: c4a3 fd3d 8108 6dbe b764 253e 2698 2dbe
000001f0: 6b6d 64bc 6210 22be bfa4 0f3a 7668 3f3e
00000200: ab57 01be ffd6 2fbe acb0 09ba 9110 96bd
00000210: 3599 d6bc c12c 103d 0d6b 47bd b279 be3d
00000220: 8e05 6abe df5f 35be cc84 6bbe 7fa6 2bbe
00000230: 6dc8 14bc 6b56 52be de40 21be 0eff 24be
00000240: 31e1 913d da1e 5cbe 3e39 3fbe 52ee 54bc
00000250: ee41 82be 8161 19be 8f89 88be 148b 18be
00000260: fd5f a0bd 7b6f 953d 5dd2 043a 0137 52be
00000270: 63af 7abe 7b4d 8cbd 7047 dcbc 46fa a9bd
00000280: c788 29be a879 4dbe 9f8a 8bbd 1e03 42be
00000290: 31e2 2dbe 87d3 7cbd 1b55 adbd a6fd 483d
000002a0: 784e 6fbe 2f0e adbc 5c3e 4cbe 5bff fbbc
000002b0: 95ae 59bd ccf8 86be 6904 00bd 3a71 9abe
000002c0: 9dbb 21be 6a21 2f3d cacf 36bc 50bc 01be
000002d0: 58d8 0fbe d58d 813d 5b2d 98be fa39 60bd
000002e0: a7e0 133e 21bb 783d b6d5 293e 6817 f3bd
000002f0: cc96 1dbe a766 cdbd 24bf 53be c15f 22be
00000300: 7d88 70be f101 c3bd 3f19 8abe 0d83 0ebe
00000310: 8a49 76bd 8ad0 ca3c 540f 8cbe caa5 9dbd
00000320: 61d8 debd 367c 87bd 9302 96be 3281 70be
00000330: 614a 49be e2eb 08be 8349 14be 35e0 ed3c
00000340: 3dcd 40bd 8c52 7abe 237a 61be 6d85 15be
00000350: e12a 13be 2b93 c33c 6f36 39be 5294 a6be
00000360: b284 58be d23e e2bc 9845 72be a1d3 87bd
00000370: c648 87be 737d 51be 175d 0bbe 5dcf e1bd
00000380: 1057 87be 2f45 87be 0b2b ffbd 97c4 bc3b
00000390: 7c71 03be af9e 4dbe e545 1dbe 2412 9abd
000003a0: ac2b 0fbe 36e2 4bbd 59e8 64be dcb8 64be
000003b0: e2d4 143d 9b71 563d a8af 33be b381 7dbe
000003c0: 9619 09be a23e 1ebd d0c5 35be 323e c2bd
000003d0: 2e46 1abd f6f0 7fbe c209 c53c 9740 23be
000003e0: 5c4c b4bd b466 57bd 8599 1abd c1f9 c93d
000003f0: 0d5f 3cbe 6591 23be 23b6 0bbe 9da8 b5bd

network_body._body_endoder.seq_layers.0.bias f4 [128]
-0.24500312 0.062262937 -0.041270465 -0.036992643 -0.21623161 -0.09848298 -0.056370247 0.06786257
-0.10011382 -0.15569115 0.011982417 -0.03492701 -0.041868128 -0.034710374 -0.08789558 -0.061118495
-0.04281483 2.642935e-12 -0.07819466 -0.25922918 -0.022099461 -0.0003727133 4.465309e-06 -0.04123523
-0.042523533 -0.08256229 -0.1023348 -0.18028137 -0.1949441 -0.17235157 -0.04924941 0.073056675
6.187503e-05 -0.1356593 -0.039018333 0.00482049 -0.056030776 -0.087573625 -0.1860711 -0.10079794
-0.31585467 0.03786608 1.068006e-07 -0.1720299 -1.7635386e-09 -0.07241781 -0.08905427 0.00038148602
-0.0717718 -0.26664725 -0.08205217 -0.07382647 -0.0374395 -0.000114098104 -0.04538529 -0.025442788
-0.022327803 -0.027163759 -0.015418845 -0.04533115 -0.23853256 0.04527876 -0.03598284 0.005308158
8.328046e-15 0.09720496 -0.061410528 -0.06587358 -0.10300542 0.057141773 -0.18782735 -0.15265341
-2.8016129e-12 -0.08187846 -0.00027603735 0.11022405 -0.10933586 -0.032413006 -0.33624238 -0.04516712
-0.08284346 6.260913e-06 -0.03448182 -0.05445684 -0.00057409715 -0.0042387093 -0.062444 -0.017169189
-0.16293213 -0.10913626 -0.043558907 -0.017591136 -0.1850274 -0.04230926 -0.046817135 -0.020686634
-0.011160603 -0.2128981 0.010507623 -0.00041645372 -0.003328914 -0.12484492 0.10603618 -0.1245033
-0.045721974 -0.14174221 -1.0186637e-09 -0.23772568 -0.0041495524 -0.15414761 -0.15701659 -0.06936974
-0.016473748 -0.12078723 -0.09522391 -0.0109741 -0.050154068 -0.10944732 -0.20483556 0.043843508
-0.05545388 -0.09700244 -0.00041793028 -0.10810576 -0.067180716 -9.2720605e-12 -0.30777034 -0.057119757
00000000: 19e2 7abe 6c07 7f3d 380b 29bd 9985 17bd
00000010: d26b 5dbe 72b1 c9bd 7de4 66bd 88fb 8a3d
00000020: 7908 cdbd 806d 1fbe e651 443c a00f 0fbd
00000030: ea7d 2bbd 772c 0ebd 9902 b4bd 6357 7abd
00000040: 9a5e 2fbd e2fa 392c 8624 a0bd b0b9 84be
00000050: ee09 b5bc bb68 c3b9 b6d4 9536 46e6 28bd
00000060: 282d 2ebd 6b16 a9bd e894 d1bd ae9b 38be
00000070: 6d9f 47be ee7c 30be c0b9 49bd bd9e 953d
00000080: e7c2 8138 46ea 0abe b0d1 1fbd 33f5 9d3b
00000090: 8780 65bd cd59 b3bd 6c89 3ebe 266f cebd
000000a0: b4b7 a1be 7619 1b3d 405a e533 9b28 30be
000000b0: 0061 f2b0 ca4f 94bd 1662 b6bd 3002 c839
000000c0: 18fd 92bd fd85 88be f80a a8bd 5532 97bd
000000d0: 295a 19bd f447 efb8 ede5 39bd 656d d0bc
000000e0: cce8 b6bc 8886 debc 539f 7cbc 28ad 39bd
000000f0: e141 74be 3976 393d be62 13bd 0ff0 ad3b
00000100: 5506 1628 6513 c73d 9b89 7bbd bae8 86bd
00000110: 81f4 d2bd 7e0d 6a3d d055 40be 2d51 1cbe
00000120: 5f25 45ac e5af a7bd 1bb9 90b9 26bd e13d
00000130: 7beb dfbd 80c3 04bd f627 acbe 2801 39bd
00000140: d5a9 a9bd d514 d236 cf3c 0dbd 230e 5fbd
00000150: 027f 16ba dfe4 8abb 48c5 7fbd 66a6 8cbc
00000160: aed7 26be d582 dfbd d36a 32bd 491b 90bc
00000170: d377 3dbe 7a4c 2dbd 53c3 3fbd 0477 a9bc
00000180: f6da 36bc f601 5abe 2a28 2c3c 7957 dab9
00000190: e929 5abb b2ae ffbd 7f29 d93d 96fb febd
000001a0: f746 3bbd df24 11be 0b01 8cb0 5c6e 73be
000001b0: f8f8 87bb dfd8 1dbe f5c8 20be b911 8ebd
000001c0: f4f3 86bc 4c5f f7bd c104 c3bd b6cc 33bc
000001d0: 5a6e 4dbd eb25 e0bd 6ac0 51be 4095 333d
000001e0: 9c23 63bd 37a9 c6bd a71d dbb9 8d66 ddbd
000001f0: 0b96 89bd a61d 23ad 1394 9dbe 68f6 69bd

network_body._body_endoder.seq_layers.0.weight f4 [128, 14]
-0.31208894 -0.020656893 0.176088 1.0932174 -0.099687584 0.104075804 0.045666415 -0.25914806
-0.007184982 -0.2950635 -0.13609232 0.0055203387 -0.12910087 -0.38066545 -0.19238845 0.25684562
0.1395916 0.085471645 -0.23607391 -0.005465113 0.13343452 0.26137245 0.08256629 0.06207964
-0.5535657 -0.3041824 0.048690576 0.3081364 -0.36837623 0.03901241 -0.29549792 0.084020354
0.02231212 0.1981871 0.24584904 0.058154054 0.21911387 0.14923479 0.035377696 0.37685266
0.003257403 -0.8158666 0.43267334 0.15096232 -0.16353604 -0.09258669 0.07855096 0.0012541151
-0.3570411 0.4280924 0.15232836 0.021929754 0.12784123 -0.012905328 -0.3463655 0.08682033
0.27251607 -0.7096775 -0.04206544 0.5029909 -0.18257421 0.15312271 -0.46680444 -0.24864104
0.32963 -0.17454818 -0.34966096 -0.18198441 -0.19196928 0.1502547 0.3655735 -0.22358188
0.15970004 0.01038732 -0.6591065 0.04423253 -0.08461293 -0.09579488 -0.27611506 -0.05898121
0.005095913 -0.26518556 0.0070973244 -0.44664356 -0.13136187 0.35165477 0.27743784 0.28328755
0.32277521 -0.38634503 0.29155147 -0.5597174 -0.22798842 0.11646674 0.3844436 0.116069496
-0.41213796 -0.14411956 -0.68211186 0.1682859 0.26316154 0.68420374 0.39223164 -0.5407489
0.5952755 -0.0577028 0.07310085 0.2776382 0.14455795 -0.47134793 0.3970492 0.06868348
0.10441238 -0.040062916 -0.13625503 0.22528571 0.10650125 0.18169399 0.375676 0.2660303
-0.09315902 0.12807254 0.38567588 -0.29546258 0.26635304 -0.040654697 -0.317281 -0.86878103
0.4734851 -0.2191909 -0.23046851 0.6261654 -0.29221523 0.37398192 -0.27764788 -0.5559117
0.36005893 0.09330454 -0.32516208 0.010286381 -0.089865856 0.040927928 -0.044111017 -0.20468824
-0.210282 -0.37901098 0.23226681 -0.148144 -0.014890116 -0.38055205 -0.24498753 0.26753587
0.15999898 -0.5494781 -0.52977073 -0.24285592 0.16069776 0.61545175 -0.17777304 -0.37497154
-0.12664632 -0.4752268 0.015656943 -0.6258393 -0.61498755 -0.020579092 0.29595247 0.07960838
0.18505333 -0.11548313 -0.30340555 0.5192058 -0.018453652 0.1869941 -0.23186009 -0.11808489
-0.05092935 -0.2731187 0.01154136 0.08934923 -0.08581832 0.29182422 -0.12839821 -0.1162939
-0.09011738 0.121022694 0.26734388 0.3774188 -0.4133177 0.121675454 0.30269897 -0.19939642
-0.24391751 0.0450774 -0.11112077 -0.004707609 -0.07164528 -0.415628 0.15346922 0.038945135
-0.4085876 0.32786813 -0.08082365 -0.07535621 -0.28556988 -0.58027536 0.12632136 0.06223457
0.08573101 -0.24940838 -0.123386994 0.24684945 -0.054428697 0.20521069 0.072050914 0.13398977
-0.515067 -0.50593686 0.10130731 -0.4351255 -0.0911927 0.36077884 -0.2551045 0.06630265
-0.40464655 0.11847553 0.29772854 -0.022897933 -0.18079305 -0.016895894 -0.39194986 0.07304725
-0.26087022 -0.17236823 0.34026802 -0.18451008 0.23299311 -0.37303597 -0.15762526 -0.078106634
-0.43309876 0.3074181 0.31098452 -0.20702057 -0.23761716 0.27484265 0.032469746 -0.44081172
0.23217063 0.07132096 -0.3292036 -0.13877359 -0.32782468 -0.039043427 0.059584517 0.24568187
00000000: 1fca 9fbe a538 a9bc 6a50 343e 8cee 8b3f
00000010: 0129 ccbd b225 d53d b50c 3b3d 0eaf 84be
00000020: ff6f ebbb 9012 97be c95b 0bbe f5e3 b43b
00000030: 0533 04be 95e6 c2be 7a01 45be 4581 833e
00000040: 1af1 0e3e c20b af3d 5cbd 71be b114 b3bb
00000050: 0fa3 083e 9cd2 853e 8418 a93d 3847 7e3d
00000060: 7bb6 0dbf ccbd 9bbe c56f 473d 0ec4 9d3e
00000070: cf9b bcbe 7acb 1f3d 814b 97be dd12 ac3d
00000080: e8c7 b63c 8ff1 4a3e dabf 7b3e f232 6e3d
00000090: 635f 603e 01d1 183e 34e8 103d d5f2 c03e
000000a0: 277a 553b a2dc 50bf 5c87 dd3e de95 1a3e
000000b0: fe75 27be 179e bdbd 53df a03d 1f61 a43a
000000c0: 17ce b6be ed2e db3e f7fb 1b3e 07a6 b33c
000000d0: d0e8 023e de70 53bc d256 b1be dbce b13d
000000e0: 3a87 8b3e 6dad 35bf d04c 2cbd 03c4 003f
000000f0: bcf4 3abe 33cc 1c3e fe00 efbe c29b 7ebe
00000100: 43c5 a83e c2bc 32be c306 b3be 1f5a 3abe
00000110: 9893 44be 5edc 193e 732c bb3e a6f2 64be
00000120: 6888 233e 942f 2a3c 34bb 28bf 2b2d 353d
00000130: 8b49 adbd 1b30 c4bd f45e 8dbe 4896 71bd
00000140: 9efb a63b 67c6 87be ac90 e83b 77ae e4be
00000150: ba83 06be 180c b43e 550c 8e3e 110b 913e
00000160: cb42 a53e 04cf c5be 3c46 953e a449 0fbf
00000170: cc75 69be 1d86 ee3d cbd5 c43e d8b5 ed3d
00000180: bf03 d3be 1494 13be e29e 2ebf 2453 2c3e
00000190: 1cbd 863e fa27 2f3f 96d2 c83e 856e 0abf
000001a0: fa63 183f c559 6cbd e6b5 953d 9826 8e3e
000001b0: 0007 143e 8454 f1be 084a cb3e eda9 8c3d
000001c0: 28d6 d53d 0319 24bd 7086 0bbe 4cb1 663e
000001d0: 541d da3d fd0d 3a3e 9b58 c03e 2035 883e
000001e0: 28ca bebd 7325 033e 4f77 c53e df46 97be
000001f0: 6d5f 883e 8a85 26bd a872 a2be 6f68 5ebf
00000200: a46c f23e 9473 60be f0ff 6bbe 604c 203f
00000210: 3c9d 95be 8f7a bf3e dd27 8ebe 3b50 0ebf
00000220: a559 b83e 7316 bf3d a57b a6be 3588 283c
00000230: 970b b8bd 0ba4 273d c1ad 34bd cb99 51be
00000240: 2a54 57be ba0d c2be 5ad7 6d3e 10b3 17be
00000250: acf5 73bc b8d7 c2be 03de 7abe 76fa 883e
00000260: c6d6 233e 99aa 0cbf 0e9f 07bf 39af 78be
00000270: f48d 243e 3f8e 1d3f 230a 36be 45fc bfbe
00000280: 93af 01be ed50 f3be fd42 803c 0137 20bf
00000290: d36f 1dbf 7c95 a8bc 1587 973e b809 a33d
000002a0: 9f7e 3d3e 6b82 ecbd f957 9bbe acea 043f
000002b0: 1d2c 97bc 627b 3f3e bb6c 6dbe 7ed6 f1bd
000002c0: 4b9b 50bd 37d6 8bbe f917 3d3c bbfc b63d
000002d0: 84c1 afbd fc69 953e d27a 03be 7f2b eebd
000002e0: 768f b8bd bfda f73d 4ce1 883e 093d c13e
000002f0: 619e d3be fb30 f93d 5cfb 9a3e 932e 4cbe
00000300: 83c5 79be 14a3 383d 4993 e3bd 4942 9abb
00000310: c3ba 92bd 31cd d4be 0927 1d3e ef84 1f3d
00000320: 6532 d1be 55de a73e df86 a5bd 5b54 9abd
00000330: 3736 92be ed8c 14bf 635a 013e ade9 7e3d
00000340: bd93 af3d e964 7fbe 52b2 fcbd 1ac6 7c3e
00000350: a0f0 5ebd c022 523e 6e8f 933d 9d34 093e
00000360: 6edb 03bf 1485 01bf 357a cf3d c5c8 debe
00000370: 3dc3 babd 01b8 b83e 0f9d 82be afc9 873d
00000380: d52d cfbe 4ca3 f23d e06f 983e 7294 bbbc
00000390: d021 39be 4269 8abc a7ad c8be cc99 953d
000003a0: c890 85be 4c81 30be 9c37 ae3e 36f0 3cbe
000003b0: bf95 6e3e 92fe bebe 8468 21be 5ff6 9fbd
000003c0: 1fbf ddbe e865 9d3e 5d39 9f3e 33fd 53be
000003d0: ea51 73be 2db8 8c3e fffe 043d 13b2 e1be
000003e0: 23be 6d3e b910 923d 608d a8be aa1a 0ebe
000003f0: a3d8 a7be 00ec 1fbd e50e 743d 0794 7b3e

network_body._body_endoder.seq_layers.2.bias f4 [128]
-0.05830051 -0.071715765 -0.16422231 0.037738178 -0.13319431 -0.124650925 -0.027857706 -0.07548932
-0.0036076491 -0.05358222 -0.112046465 -0.16747983 -0.0362636 -0.14983305 -0.06673282 -0.09324574
0.0023720418 -0.024178252 -0.07839749 0.13679512 -0.025967171 -0.09658836 -0.07966137 -0.09125177
0.02534489 -0.05149883 -0.011528664 0.030008689 -0.11167707 -0.0051934235 0.062442355 -0.041403946
-0.1161105 0.017957697 -0.13053484 -0.043397002 -0.0498317 -0.032038607 -0.013497303 -0.049251117
-0.08943973 -0.02416546 -0.12352255 -0.109472446 -0.07502044 -0.013996284 0.04384329 -0.08088156
-0.115627736 -0.11183739 -0.1171011 -0.04829523 0.079466276 -0.10408052 0.007543225 -0.057849474
-0.030862978 -0.0084936675 0.041894697 0.0896623 0.011151247 -0.054350216 0.015702073 -0.07159298
-0.030703967 -0.046315942 -0.027952211 -0.091697715 -0.07841856 -0.07809918 -0.0050361697 0.043786634
-0.008920627 -0.021862857 -0.08209795 -0.042148057 -0.0056142495 -0.17008907 -0.014954548 -0.090526916
0.012639735 -0.061558276 -0.10479188 0.014113759 -0.1103963 -0.04349295 0.0036035876 -0.065465346
-0.11922046 -0.11150342 -0.020395834 0.042072125 0.017843382 -0.07836093 -0.106081545 -0.10991723
0.028812064 -0.027119968 0.12494824 0.034183443 -0.035907593 -0.0004794575 0.027447833 -0.113570265
-0.05564368 -0.07419798 -0.015802827 0.020376941 0.026745142 -0.010976302 -0.16268702 0.01772943
0.018604184 -0.07189941 -0.03168625 -0.058986716 -0.14523832 -0.07719806 0.004197412 -0.089373
-0.048435427 -0.118418805 0.09464398 -0.07645 -0.052953638 -0.07003846 0.0037645285 -0.101457626
00000000: 84cc 6ebd b7df 92bd e529 28be 5993 1a3d
00000010: 1764 08be fc48 ffbd d835 e4bc 259a 9abd
00000020: 4f6e 6cbb 0879 5bbd 9e78 e5bd d57f 2bbe
00000030: 2489 14bd d66d 19be 37ab 88bd 9ff7 bebd
00000040: 4274 1b3b 7811 c6bc dd8e a0bd 0514 0c3e
00000050: 1bb9 d4bc 1ed0 c5bd 8025 a3bd 35e2 babd
00000060: 16a0 cf3c 70f0 52bd b9e2 3cbc c8d4 f53c
00000070: f3b6 e4bd 982d aabb 8ec3 7f3d 2f97 29bd
00000080: 58cb edbd 051c 933c edaa 05be 0ec1 31bd
00000090: 531c 4cbd ea3a 03bd cb23 5dbc 8abb 49bd
000000a0: 2d2c b7bd a5f6 c5bc 64f9 fcbd 1733 e0bd
000000b0: 51a4 99bd ac50 65bc 0695 333d 3ba5 a5bd
000000c0: 3cce ecbd 000b e5bd b4d2 efbd 38d1 45bd
000000d0: 37bf a23d 2b28 d5bd 282d f73b 92f3 6cbd
000000e0: 5bd4 fcbc 0629 0bbc c699 2b3d dea0 b73d
000000f0: b8b3 363c 559e 5ebd a2a1 803c 579f 92bd
00000100: e386 fbbc c9b5 3dbd 09fc e4bc 03cc bbbd
00000110: e999 a0bd 76f2 9fbd 7406 a5bb 9d59 333d
00000120: d227 12bc bc19 b3bc f822 a8bd 71a3 2cbd
00000130: bdf7 b7bb d42b 2ebe ec03 75bc 2d66 b9bd
00000140: e416 4f3c 8824 7cbd 209d d6bd 653d 673c
00000150: 7517 e2bd aa25 32bd 2b2a 6c3b b212 86bd
00000160: db29 f4bd e85b e4bd 2a15 a7bc d253 2c3d
00000170: 492c 923c b27b a0bd 4841 d9bd 491c e1bd
00000180: 4707 ec3c b22a debc dde4 ff3d f003 0c3d
00000190: d713 13bd b25f fbb9 47da e03c 8797 e8bd
000001a0: a1ea 63bd 1cf5 97bd ee74 81bc 8bed a63c
000001b0: a118 db3c f3d5 33bc 6d97 26be 4f3d 913c
000001c0: cd67 983c ff3f 93bd 71c9 01bd 0e9c 71bd
000001d0: 5bb9 14be 041a 9ebd 728a 893b 3109 b7bd
000001e0: 3a64 46bd 8f85 f2bd b4d4 c13d d191 9cbd
000001f0: eae5 58bd 5370 8fbd 4fb6 763b 04c9 cfbd

network_body._body_endoder.seq_layers.2.weight f4 [128, 128]
-0.019061347 -0.015076134 -0.10252505 0.12612067 -0.21679711 0.026173985 -0.23724654 0.041029546
-0.10188479 -0.0025399572 -0.120514385 0.0119928755 -0.10339762 -0.041126784 -0.01423477 0.054887015
-0.00069088035 -0.13217218 -0.07261441 0.012936318 0.011337938 -0.17100552 0.09516494 -0.011608479
0.023737675 -0.09645118 -0.28036267 0.004306336 -0.18283667 -0.11211785 -0.30516165 0.0022319483
0.040242925 -0.068915926 0.085163146 -0.057822783 -0.025327004 0.0055364836 -0.166815 0.01675643
-0.1276144 -0.10340106 -0.10496544 0.02115636 0.02810724 -0.09384265 0.05925019 -0.0833165
-0.08990728 -0.1338722 -0.09485942 -0.41631028 -0.0878698 -0.020139448 0.04163966 0.014505375
0.03864173 -0.3212541 -0.19183862 -0.082193695 -0.32038555 -0.16913188 -0.09446667 -0.04139587
-0.07207633 -0.14364164 -0.08847584 0.18322282 -0.12848441 0.09161417 -0.06574493 -0.037037775
0.12454109 0.108425744 0.02002773 0.040356405 -0.061331574 0.07068393 -0.05244665 -0.07045535
0.09076008 0.05303511 0.11081263 -0.10297517 -0.053855006 0.085209854 -0.09698325 0.029893368
-0.016086873 -0.023762874 -0.16568126 0.11893467 -0.04365664 0.08526921 -0.08382617 -0.03734182
-0.11363055 0.13866164 -0.13659805 0.089714006 -0.1784019 0.16219331 0.13479717 -0.18020661
0.15048814 0.011270272 0.041938994 -0.03554163 -0.0033320223 -0.12075519 -0.20691523 -0.090003125
-0.208856 -0.11124326 0.02211064 0.033046644 -0.062210273 -0.113467865 0.084223144 -0.07482558
-0.18252234 0.0805098 -0.07637776 -0.065718286 -0.17328507 0.11969759 0.049046643 -0.17715724
0.061897665 0.042204615 -0.30740368 -0.17130053 0.09590974 0.06908155 -0.2924079 -0.12176632
0.0010720112 -0.12071392 -0.05068371 0.11724618 -0.045617476 -0.05771975 0.14618202 0.07852934
0.16277254 0.09695802 0.012060109 0.08125208 0.08478674 0.1643812 -0.07885593 0.09663006
0.080976635 -0.13370615 -0.08210693 -0.19281696 0.09564341 0.02146241 0.0028107327 -0.081284
-0.089620106 0.04491599 0.042410206 -0.17848964 0.13033673 0.09098358 0.03641211 -0.060932104
-0.09504454 0.00510483 -0.05893389 0.15619785 0.092143536 0.018246716 -0.18553007 -0.15652955
-0.1069333 -0.1229007 0.082830064 0.07153924 -0.042375553 -0.078624 0.07544976 -0.16298763
-0.02167163 -0.0650871 -0.041621257 -0.0067614475 -0.19314139 -0.28585252 0.01225442 -0.10509905
-0.15062344 -0.0035703373 0.11946239 -0.08023251 -0.021925857 -0.26347214 0.083374314 -0.07261122
-0.043022577 0.08596677 -0.017599965 -0.12445935 -0.005645672 -0.010322718 0.1958511 0.18296278
0.17697491 -0.061436668 0.05467052 0.13395156 -0.003943568 -0.032900676 0.009341745 0.025027324
-0.14091723 -0.13208367 -0.18332246 0.19659093 -0.032531478 -0.036433034 -0.1337744 0.124094725
0.12624212 -0.22029743 -0.07043116 -0.26913437 -0.06767689 0.094988935 0.09905428 0.16117819
-0.13103688 -0.12098528 0.084246084 -0.02785003 0.008665824 -0.05473497 -0.06972021 -0.029328072
-0.090342924 0.14401847 -0.02040607 -0.008169843 -0.042972926 -0.109508246 0.023874044 0.009016074
0.082757756 0.1376715 -0.22019027 -0.12903127 0.15644754 0.121434316 -0.06949328 0.12177643
00000000: 8b26 9cbc e401 77bc a7f8 d1bd c725 013e
00000010: 1000 5ebe d36a d63c c2f0 72be 990e 283d
00000020: f9a8 d0bd 6975 26bb 3fd0 f6bd c47d 443c
00000030: 22c2 d3bd 8f74 28bd f438 69bc 35d1 603d
00000040: 321c 35ba 2558 07be ddb6 94bd daf2 533c
00000050: c2c2 393c 121c 2fbe d6e5 c23d 7d31 3ebc
00000060: 8375 c23c 3288 c5bd b28b 8fbe 2a1c 8d3b
00000070: 8939 3bbe 0b9e e5bd 263e 9cbe e145 123b
00000080: c4d5 243d cb23 8dbd 046a ae3d 95d7 6cbd
00000090: 947a cfbc 646b b53b 8dd1 2abe c844 893c
000000a0: 59ad 02be efc3 d3bd 1ff8 d6bd 1a50 ad3c
000000b0: 2841 e63c 9330 c0bd 54b0 723d d7a1 aabd
000000c0: 4f21 b8bd cb15 09be a845 c2bd 9f26 d5be
000000d0: 15f5 b3bd 7cfb a4bc 598e 2a3d f4a7 6d3c
000000e0: ca46 1e3d 6b7b a4be 5871 44be 2b55 a8bd
000000f0: 9309 a4be e830 2dbe be77 c1bd b78e 29bd
00000100: c19c 93bd cb16 13be d232 b5bd c39e 3b3e
00000110: 6b91 03be 36a0 bb3d 47a5 86bd ecb4 17bd
00000120: 660f ff3d 510e de3d 3211 a43c c24c 253d
00000130: d136 7bbd bcc2 903d 4cd2 56bd e54a 90bd
00000140: 6ce0 b93d 583b 593d bbf1 e23d a5e4 d2bd
00000150: 1197 5cbd 8182 ae3d 279f c6bd f0e2 f43c
00000160: 9ec8 83bc 5caa c2bc 59a8 29be 0594 f33d
00000170: 4ed1 32bd a0a1 ae3d 0ead abbd bcf3 18bd
00000180: 22b7 e8bd 51fd 0d3e 5ce0 0bbe fabb b73d
00000190: fdae 36be 0116 263e 4508 0a3e 1588 38be
000001a0: 9019 1a3e f2a6 383c 39c8 2b3d 1a94 11bd
000001b0: 0f5e 5abb 7f4e f7bd 96e1 53be 8f53 b8bd
000001c0: 59de 55be 82d3 e3bd 5f21 b53c eb5b 073d
000001d0: 33d0 7ebd d761 e8bd 2f7d ac3d 273e 99bd
000001e0: 23e7 3abe 52e2 a43d f16b 9cbd 4f97 86bd
000001f0: a471 31be 0324 f53d 22e5 483d b568 35be
00000200: 6888 7d3d bfde 2c3d 0464 9dbe 6869 2fbe
00000210: 536c c43d a17a 8d3d 7db6 95be 9f60 f9bd
00000220: ba82 8c3a dc38 f7bd b999 4fbd c41e f03d
00000230: 64d9 3abd 8b6b 6cbd bdb0 153e fed3 a03d
00000240: d8ad 263e ed91 c63d c397 453c 7e67 a63d
00000250: aca4 ad3d 8c53 283e 387f a1bd fbe5 c53d
00000260: 14d7 a53d 44ea 08be ae27 a8bd cf71 45be
00000270: b1e0 c33d f0d1 af3c 4534 383b 3a78 a6bd
00000280: bf8a b7bd d4f9 373d 53b6 2d3d fdc5 36be
00000290: fe76 053e 9955 ba3d dd24 153d f193 79bd
000002a0: b6a6 c2bd 6b46 a73b aa64 71bd 54f2 1f3e
000002b0: c0b5 bc3d 237a 953c 98fb 3dbe 4849 20be
000002c0: d9ff dabd 5db3 fbbd cfa2 a93d 2a83 923d
000002d0: fd91 2dbd 9f05 a1bd 6785 9a3d 3be6 26be
000002e0: b488 b1bc 634c 85bd 0d7b 2abd 228f ddbb
000002f0: dbc6 45be 435b 92be c3c6 483c 2c3e d7bd
00000300: 083d 1abe 52fc 69bb b3a8 f43d f150 a4bd
00000310: db9d b3bc d2e5 86be 27c0 aa3d 31b5 94bd
00000320: 7138 30bd 590f b03d cd2d 90bc 8be4 febd
00000330: 54ff b8bb 9e20 29bc 318d 483e 985a 3b3e
00000340: e938 353e 04a5 7bbd 32ee 5f3d 992a 093e
00000350: 0c39 81bb dcc2 06bd 1e0e 193c 1a06 cd3c
00000360: 9b4c 10be f140 07be e2b8 3bbe 224f 493e
00000370: ba3f 05bd ce3a 15bd 28fc 08be 6025 fe3d
00000380: 9d45 013e a695 61be 363e 90bd fbcb 89be
00000390: 2e9a 8abd 8f89 c23d f8dc ca3d e50b 253e
000003a0: 882e 06be 21c7 f7bd 3689 ac3d bf25 e4bc
000003b0: 1afb 0d3c c731 60bd 78c9 8ebd 6d41 f0bc
000003c0: b605 b9bd 9479 133e a12a a7bc ceda 05bc
000003d0: 6104 30bd dc45 e0bd 8093 c33c 28b8 133c
000003e0: e67c a93d c2f9 0c3e 8f79 61be c620 04be
000003f0: c933 203e 8eb2 f83d 7e52 8ebd ec65 f93d

network_body._body_endoder.seq_layers.4.bias f4 [128]
-0.12578352 0.10995919 -0.11123893 0.15895364 -0.09754299 -0.18742055 -0.0143628325 0.047144596
-0.19981736 0.22868726 0.0058709243 -0.0111457715 -0.18355368 0.08342835 -0.08561647 -0.051427852
-0.12489132 -0.061090533 -0.14876212 0.06706659 -0.09192178 -0.055609353 0.32034892 -0.1362886
0.08151569 0.022251772 -0.02675725 -0.11292851 -0.031511664 -0.12430168 -0.04370133 0.15820032
0.037706867 0.008542102 0.010554524 -0.011882873 -0.087069646 -0.036121316 0.09448859 0.009921615
0.06366814 -0.076390386 0.036966022 0.13505769 -0.016878005 -0.00022761658 -0.09278782 0.056785226
0.21357387 -0.22088204 -0.00890451 -0.07008045 -0.058126688 -0.055381447 -0.03978061 -0.09773895
-0.02613285 -0.11031912 0.030923596 -0.075733505 -0.14539167 -0.017035203 -0.0020020376 -0.025844146
-0.0037309658 -0.06949498 -0.022845834 -0.10866295 -0.29460865 0.06399273 -0.020096643 -0.16201416
-0.05119211 -0.05105538 -0.10370219 -0.009933102 -0.064681605 0.0057664346 -0.05432767 -0.09052714
-0.0012450726 -0.20046803 0.0036333387 -0.010607728 -0.051856074 -0.28243676 -0.010445101 -0.14575249
-0.16203982 -0.07795708 -0.097782165 -0.085230544 -0.15605326 -0.040896744 -0.111397214 -0.11672824
0.12606202 -0.035787087 -0.0324209 -0.1262394 -0.21960844 -0.029640285 -0.014850433 -0.14104152
-0.061815508 0.02175362 -0.111172624 -0.16071962 0.0724593 -0.042988244 -0.024897302 -0.13268265
-0.043463733 -0.07725611 -0.1283859 -0.11806644 -0.0686995 -0.073295385 0.13931754 -0.08731724
0.05512035 0.04704211 -0.079922244 0.16948368 -0.09315557 -0.01949446 -0.09006282 0.009852929
00000000: 65cd 00be 4932 e13d 3cd1 e3bd bec4 223e
00000010: 9fc4 c7bd 2ceb 3fbe 1652 6bbc b11a 413d
00000020: ec9c 4cbe fe2c 6a3e e260 c03b c19c 36bc
00000030: 7ff5 3bbe 7cdc aa3d b057 afbd 03a6 52bd
00000040: 05c7 ffbd 113a 7abd 1955 18be 355a 893d
00000050: 7c41 bcbd a2c6 63bd c604 a43e 3d8f 0bbe
00000060: b3f1 a63d 5949 b63c 0532 dbbc 1047 e7bd
00000070: 6012 01bd e191 febd 2a00 33bd 44ff 213e
00000080: 8472 1a3d 2cf4 0b3c e2ec 2c3c 62b0 42bc
00000090: 9251 b2bd f2f3 13bd 3c83 c13d 458e 223c
000000a0: 7164 823d 9072 9cbd af69 173d 904c 0a3e
000000b0: be43 8abc 5cac 6eb9 8a07 bebd a097 683d
000000c0: 1cb3 5a3e e72e 62be 39e4 11bc 5786 8fbd
000000d0: 4016 6ebd a8d7 62bd fef0 22bd 5c2b c8bd
000000e0: 8f14 d6bc feee e1bd 7b53 fd3c 2b1a 9bbd
000000f0: 8ee1 14be 698d 8bbc 9e34 03bb 1ab7 d3bc
00000100: 3883 74bb 6253 8ebd 3027 bbbc ae8a debd
00000110: f2d6 96be 9f0e 833d b7a1 a4bc 0ae7 25be
00000120: d1ae 51bd 721f 51bd d061 d4bd 73be 22bc
00000130: ca77 84bd 5cf4 bc3b b186 5ebd 4b66 b9bd
00000140: b431 a3ba 7e47 4dbe 4f1d 6e3b 09cc 2dbc
00000150: 0967 54bd 8d9b 90be ee21 2bbc 2440 15be
00000160: c4ed 25be f6a7 9fbd 0442 c8bd 5a8d aebd
00000170: 6dcc 1fbe 5883 27bd 3924 e4bd 370f efbd
00000180: 6716 013e 7b95 12bd c7cb 04bd e744 01be
00000190: 09e1 60be 2fd0 f2bc 3b4f 73bc 306d 10be
000001a0: 4232 7dbd a634 b23c 79ae e3bd af93 24be
000001b0: 8b65 943d 7114 30bd 6df5 cbbc f6dd 07be
000001c0: 0707 32bd 7438 9ebd 9877 03be d1cc f1bd
000001d0: 53b2 8cbd e41b 96bd 42a9 0e3e 62d3 b2bd
000001e0: e0c5 613d 3aaf 403d 46ae a3bd 218d 2d3e
000001f0: 59c8 bebd d9b2 9fbc db72 b8bd 2e6e 213c

network_body._body_endoder.seq_layers.4.weight f4 [128, 128]
-0.21536413 0.15556538 0.123848096 -0.14327055 0.13298856 0.0027542892 -0.11316979 -0.13341749
0.05028035 0.124381974 -0.07172198 -0.18510358 -0.14697419 0.0063842298 0.067438506 -0.0072930655
-0.11819349 0.027675305 -0.09553045 -0.043592133 0.029114218 -0.17966083 0.059788194 0.10715404
0.08034567 -0.4006466 0.09965583 -0.13590021 0.14214428 0.009445625 -0.02506194 0.19050822
0.08332604 0.16129223 -0.102207676 0.1920025 -0.016512588 -0.051652245 0.12491802 -0.22663395
-0.07739429 0.01748115 0.13924702 0.022539964 0.026604071 0.23204684 -0.082357526 0.10990578
0.16496338 0.057189234 0.02186902 -0.09860698 -0.19421227 -0.015279811 0.1637442 0.23173736
-0.0975904 -0.15133278 0.0108315265 0.025709253 0.095988825 -0.03684173 0.029116254 0.13412224
0.13945372 -0.22966349 -0.12506963 -0.071337536 0.008892934 -0.01772163 0.1912944 -0.15882844
-0.15179083 -0.02616284 0.091343015 -0.12867631 -0.1676924 -0.14674456 -0.16277021 -0.22826801
-0.105104595 0.079221055 -0.12642248 0.016569056 -0.1306889 0.31419876 0.24407868 0.028489437
-0.041312378 -0.115080364 0.045663882 0.17855619 -0.12773277 0.23788412 -0.09432811 -0.034278627
0.07492787 -0.062193234 -0.16440487 -0.0036463174 0.12091411 -0.16874494 0.015977131 0.00065937504
0.087722756 -0.011512593 0.044210594 0.2166749 -0.12271176 -0.21736881 0.0459692 -0.025883598
0.03370872 -0.16995512 0.016764041 0.2585454 0.08361861 -0.039777163 0.041443788 0.18514332
-0.032446984 -0.06798021 -0.18601173 -0.15104264 0.123886436 -0.0756172 0.26639774 -0.31332248
0.27521607 0.13758415 -0.016489116 -0.2439791 -0.1112842 -0.176028 0.024486177 -0.13528648
-0.25539404 -0.024755124 0.25519717 0.03673652 0.22651902 0.104321286 0.1166584 0.13902171
-0.09902025 0.13532014 0.059592314 0.02447857 -0.21711501 -0.00602561 -0.08253088 0.0015377405
0.028363233 0.048972104 0.28350452 -0.35278744 0.046820674 -0.13886638 0.07788303 0.25452736
-0.00844218 -0.028039023 0.14025348 -0.016970946 -0.035919633 -0.086614855 0.21491067 -0.12919125
0.28226727 0.21770805 -0.1596415 0.14810692 -0.103245705 -0.21806356 -0.10666192 0.082758345
-0.11078127 -0.13717154 -0.045698706 0.08946092 0.20416465 0.086063966 -0.03293535 0.15848263
-0.012735587 0.08436389 -0.08115959 -0.26387104 0.14791337 0.050131258 -0.08189915 0.13610442
-0.1487321 0.008341719 0.18536311 -0.005725639 -0.08204153 0.28352258 -0.052029308 0.08441343
0.007489536 -0.004392584 0.04447908 0.08592744 0.13299567 0.042501595 0.08106523 -0.17421071
-0.070992395 -0.028437993 -0.037533887 0.12633468 0.20831959 0.091084614 0.13879523 -0.11471377
-0.011082476 -0.04435646 -0.16638438 0.21518146 -0.05396689 0.12251606 0.042253096 0.17588331
0.011972899 -0.06211986 0.15385209 -0.2237591 -0.18292907 0.048352953 -0.056153562 -0.116087995
-0.06028028 0.018266397 0.23594181 0.16006675 0.0103400545 0.18295035 -0.030062191 0.13298082
-0.017151859 0.14310531 -0.18175435 0.024914687 0.09867991 0.061356347 -0.11496506 0.06156504
-0.09722244 0.025098212 0.017959926 0.120921955 0.17461929 -0.025657667 -0.14408828 0.08548292
00000000: 6a88 5cbe 884c 1f3e 12a4 fd3d 84b5 12be
00000010: 272e 083e 4e81 343b 90c5 e7bd 989e 08be
00000020: c5f2 4d3d fabb fe3d f9e2 92bd cb8b 3dbe
00000030: 6780 16be cd32 d13b 331d 8a3d abfa eebb
00000040: 6e0f f2bd 52b7 e23c 78a5 c3bd aa8d 32bd
00000050: f180 ee3c 02f9 37be 77e4 743d 9473 db3d
00000060: 458c a43d 8d21 cdbe 5b18 cc3d 6d29 0bbe
00000070: 458e 113e d3c1 1a3c b34e cdbc 9614 433e
00000080: d8a6 aa3d ca29 253e 4252 d1bd 4e9c 443e
00000090: 6845 87bc 4e91 53bd 05d5 ff3d bb12 68be
000000a0: e680 9ebd a134 8f3c c596 0e3e bba5 b83c
000000b0: c8f0 d93c b09d 6d3e 10ab a8bd 4816 e13d
000000c0: 29ec 283e 423f 6a3d a926 b33c 75f2 c9bd
000000d0: 95df 46be 2c58 7abc 8fac 273e 8f4c 6d3e
000000e0: 7add c7bd fbf6 1abe b776 313c 369c d23c
000000f0: ca95 c43d 5be7 16bd 3685 ee3c 5757 093e
00000100: f5cc 0e3e e82c 6bbe 4112 00be 6a19 92bd
00000110: abb3 113c f42c 91bc aee2 433e eca3 22be
00000120: 0e6f 1bbe 7453 d6bc 0c12 bb3d b9c3 03be
00000130: 8eb7 2bbe 3544 16be 3cad 26be 17bf 69be
00000140: 1441 d7bd a63e a23d e574 01be d4bb 873c
00000150: 50d3 05be a9de a03e c3ef 793e ae62 e93c
00000160: 2b37 29bd 41af ebbd 0d0a 3b3d 6fd7 363e
00000170: 61cc 02be e597 733e 192f c1bd bf67 0cbd
00000180: c873 993d 55be 7ebd c059 28be 0ef7 6ebb
00000190: d1a1 f73d 79cb 2cbe 79e2 823c e9d9 2c3a
000001a0: fda7 b33d 519f 3cbc 2b16 353d 06e0 5d3e
000001b0: 4e50 fbbd ee95 5ebe 334a 3c3d d709 d4bc
000001c0: 2812 0a3d b708 2ebe be54 893c 1060 843e
000001d0: 3c40 ab3d 61ed 22bd f6c0 293d 3696 3d3e
000001e0: 21e7 04bd 3539 8bbd dc79 3ebe ecaa 1abe
000001f0: 2cb8 fd3d 31dd 9abd 4965 883e ce6b a0be
00000200: 1fe9 8c3e dce2 0c3e 2f14 87bc a8d5 79be
00000210: f8e8 e3bd af40 34be 3c97 c83c 8a88 0abe
00000220: 02c3 82be 42cb cabc 34a9 823e 0879 163d
00000230: 9af4 673e 66a6 d53d 99ea ee3d b55b 0e3e
00000240: 21cb cabd 5d91 0a3e 1217 743d 4887 c83c
00000250: 6653 5ebe 7b72 c5bb f305 a9bd 028e c93a
00000260: 035a e83c f996 483d 8127 913e 8ea0 b4be
00000270: 09c7 3f3d fd32 0ebe 2381 9f3d 6951 823e
00000280: 1251 0abc 18b2 e5bc 9c9e 0f3e a706 8bbc
00000290: 7720 13bd 2163 b1bd 8b11 5c3e b64a 04be
000002a0: 5685 903e dcee 5e3e 1079 23be 57a9 173e
000002b0: 7c72 d3bd 0e4c 5fbe 9171 dabd 357d a93d
000002c0: 4ae1 e2bd b276 0cbe 912e 3bbd 4937 b73d
000002d0: 8a10 513e 4e42 b03d 38e7 06bd 4549 223e
000002e0: eca8 50bc fac6 ac3d 0037 a6bd 1b1a 87be
000002f0: 9a76 173e 6f56 4d3d beba a7bd f55e 0b3e
00000300: 3a4d 18be b5ab 083c d4cf 3d3e 249e bbbb
00000310: 6405 a8bd df29 913e af1c 55bd f3e0 ac3d
00000320: c86a f53b aaef 8fbb b22f 363d bafa af3d
00000330: 0430 083e 2716 2e3d 8705 a63d 4b64 32be
00000340: 7664 91bd cbf6 e8bc 22bd 19bd e15d 013e
00000350: bb51 553e 928a ba3d 5620 0e3e 0eef eabd
00000360: 4693 35bc 1faf 35bd ab60 2abe 8758 5c3e
00000370: 630c 5dbd b3e9 fa3d 9511 2d3d c11a 343e
00000380: fa29 443c 6571 7ebd 678b 1d3e 1b21 65be
00000390: c251 3bbe bf0d 463d 4701 66bd 8bbf edbd
000003a0: 74e8 76bd 69a3 953c bb9a 713e 8ae8 233e
000003b0: 5569 293c 5657 3b3e fc44 f6bc 202c 083e
000003c0: 0e82 8cbc 338a 123e d01d 3abe e319 cc3c
000003d0: b118 ca3d cb50 7b3d cd72 ebbd a02b 7c3d
000003e0: 8f1c c7bd c49a cd3c b220 933c eea5 f73d
000003f0: 66cf 323e 0730 d2bc e18b 13be ab11 af3d

network_body._body_endoder.seq_layers.6.bias f4 [128]
-0.09633564 0.09042274 -0.04984325 -0.0881207 -0.17964807 0.0038209914 -0.05315211 0.0026014936
0.02123795 -0.033371694 0.07211014 -0.023622451 -0.08339685 0.09976821 0.042653885 0.004516837
-0.11414043 -0.026855523 -0.034256835 -0.09498759 -0.06295296 -0.0558335 0.051328123 0.052987877
0.03752356 0.22197832 -0.11119665 -0.06836877 0.06949294 -0.01229745 -0.0978187 0.015048676
0.10175954 -0.016462842 -0.075717635 -0.0038486053 0.07178174 -0.03443912 -0.060344446 -0.15211625
-0.053547986 -0.14300571 -0.025251597 0.018674104 -0.034755982 -0.0144724315 0.12938717 -0.01801745
0.0020911584 0.12785394 -0.034611233 -0.06343226 0.017086538 0.26395604 0.051182177 0.021611396
0.40096217 -0.051584795 0.07783971 -0.020392656 0.015255386 0.0589151 0.10834944 -0.17890944
0.027909333 -0.14852223 -0.018272249 -0.06439981 -0.002000443 -0.09352411 0.06706831 0.10168988
-0.13657534 -0.08612007 0.07232515 0.04412869 0.07533272 -0.0076235887 -0.05520754 0.22158565
-0.1591751 0.0030152632 0.029744806 0.0461487 -0.051757388 -0.1298223 0.049278863 0.18201338
-0.06519102 0.1739304 -0.001115987 -0.041245017 0.053226493 -0.065567985 0.012158094 0.059012946
0.06619732 0.108985595 0.109999105 -0.06573451 0.021884354 0.009381441 -0.033427767 -0.10131298
0.057467368 -0.0877578 0.020967627 0.06457158 -0.13497828 -0.0075374553 -0.013306909 -0.025247969
-0.12553519 -0.0030991929 -0.01458268 -0.085418396 -0.03827182 -0.089936264 0.015595856 -0.08149391
-0.126288 -0.12800841 -0.009680617 -0.10248982 -0.062142562 -0.03224386 -0.09881359 0.041975014
00000000: 9f4b c5bd 8f2f b93d 7028 4cbd a078 b4bd
00000010: aaf5 37be 9969 7a3b 07b6 59bd d27d 2a3b
00000020: 36fb ad3c c2b0 08bd 7bae 933d df83 c1bc
00000030: f8cb aabd 4653 cc3d d7b5 2e3d fa01 943b
00000040: 75c2 e9bd 1d00 dcbc e550 0cbd db88 c2bd
00000050: 7bed 80bd abb1 64bd 703d 523d d109 593d
00000060: 4eb2 193d 494e 633e 12bb e3bd ed04 8cbd
00000070: 5152 8e3d 3e7b 49bc 2c55 c8bd b98e 763c
00000080: 4e67 d03d 15dd 86bc d911 9bbd e238 7cbb
00000090: 4e02 933d 0910 0dbd bd2b 77bd 5dc4 1bbe
000000a0: 2255 5bbd 1770 12be 70dc cebc 6ffa 983c
000000b0: 4a5c 0ebd c71d 6dbc 127e 043e 5599 93bc
000000c0: d10b 093b 25ec 023e 82c4 0dbd c6e8 81bd
000000d0: 11f9 8b3c 3f25 873e 67a4 513d 620a b13c
000000e0: ea4a cd3e 944a 53bd 6d6a 9f3d 800e a7bc
000000f0: baf1 793c f650 713d 50e6 dd3d 0934 37be
00000100: 1da2 e43c 3616 18be afaf 95bc 0ce4 83bd
00000110: dd19 03bb 9289 bfbd 1c5b 893d c942 d03d
00000120: 68da 0bbe b85f b0bd 351f 943d 49c0 343d
00000130: 0b48 9a3d 4ccf f9bb 4d21 62bd 59e7 623e
00000140: ccfe 22be b99b 453b 61ab f33c 6b06 3d3d
00000150: 8eff 53bd 23f0 04be a2d8 493d b761 3a3e
00000160: df82 85bd d01a 323e 4f46 92ba 89f0 28bd
00000170: 0604 5a3d 8248 86bd be32 473c 8fb7 713d
00000180: 7692 873d d733 df3d 3647 e13d d19f 86bd
00000190: d146 b33c 9eb4 193c 8eeb 08bd 2e7d cfbd
000001a0: e762 6b3d 5dba b3bd 4dc4 ab3c 1b3e 843d
000001b0: bf37 0abe c2fc f6bb 3905 5abc d4d4 cebc
000001c0: 4c8c 00be d41b 4bbb 31ec 6ebc d7ef aebd
000001d0: e9c2 1cbd 8130 b8bd c385 7f3c 47e6 a6bd
000001e0: a451 01be a314 03be 739b 1ebc 2fe6 d1bd
000001f0: 3389 7ebd 2312 04bd c85e cabd feed 2b3d

network_body._body_endoder.seq_layers.6.weight f4 [128, 128]
0.17440547 -0.09537558 -0.03989378 -0.13869375 0.13695934 0.02022863 -0.136826 0.15976402
0.14825068 0.03014114 -0.17699564 0.07063161 0.2697884 0.13354337 0.049066573 0.08122447
-0.096669674 0.14470491 -0.26721618 0.0698766 -0.0022823361 -0.21311608 -0.18028775 -0.18016967
-0.14814049 -0.16555454 0.060376227 0.087996714 -0.25891092 0.11884819 0.08545348 0.08342508
-0.029760843 0.116847746 0.1953651 0.021037713 -0.13356368 0.056949012 -0.03995794 0.11268274
-0.09608937 -0.086412646 -0.02594965 -0.11373566 0.34066528 0.044558596 0.11868486 0.123156086
-0.024082892 0.0045484025 -0.105623804 -0.0017316324 0.06478108 0.09192957 -0.053177483 0.2740629
-0.22584397 -0.05788516 0.23220728 -0.02105491 0.18274368 -0.06070041 0.23974514 0.070601486
-0.049413618 0.018311752 -0.15005715 0.15599677 0.07418986 -0.051264007 0.013870925 -0.20128734
-0.2627986 0.050317314 0.08311305 -0.08114097 -0.027949534 -0.03493216 -0.1337287 -0.16099943
-0.048826043 0.27650565 -0.14835966 -0.02161999 -0.2120996 0.040113356 0.115940064 0.23536804
-0.03804411 0.10605715 0.24741997 -0.10207718 -0.04530373 -0.10012764 -0.039444048 -0.0053108535
0.09322675 0.115849264 -0.3158395 0.2164476 0.11558597 0.019871505 -0.091777794 0.055473592
0.08209102 0.21969053 0.08908996 -0.22477147 -0.20736495 -0.17485549 0.2520989 0.049557965
0.27848753 -0.11402945 0.22020666 -0.10215368 0.10185142 0.012105656 0.03631188 -0.014696606
-0.16990346 -0.056296375 0.09701801 0.123611696 0.09822365 -0.21429686 -0.18888126 -0.04191074
-0.014124298 -0.011865108 -0.048261788 -0.120129384 -0.057793178 -0.14469151 -0.14287524 0.27349356
-0.05088382 -0.07220275 -0.1922828 -0.113720916 -0.070749514 0.017511047 -0.5471437 -0.20383845
-0.06873442 0.044555124 0.047466166 -0.11318061 -0.19145831 -0.13829857 -0.039927494 0.097375266
0.055946015 -0.28862894 -0.11778536 -0.11047743 -0.054605845 -0.08852676 -0.3495029 -0.115511276
-0.19521244 -0.08442375 0.06965586 -0.02238701 -0.13823596 0.013145318 -0.116183184 0.14754276
-0.019356545 -0.062043607 -0.2976754 -0.12064083 -0.10544512 -0.2642131 -0.18827634 -0.101547845
-0.038953964 -0.08427922 0.02135942 -0.09654819 0.007307926 0.010550818 0.16420232 0.3555646
0.042131394 -0.121220596 0.10827711 0.34246635 0.015637884 -0.12060041 -0.06396308 -0.026903167
-0.29610878 -0.29684904 0.0112614 -0.2640474 -0.12508185 -0.15330492 -0.23360744 0.07063503
-0.12410382 0.12125391 0.16264169 0.05514251 -0.028470848 -0.28578067 0.19064581 0.06685986
-0.0002764973 -0.032274358 -0.17454773 -0.06794301 0.043369602 -0.19013664 0.119666986 -0.059553444
-0.07164144 -0.3246329 -0.12819164 0.17707007 -0.25114185 -0.068304434 0.11960905 -0.25221065
-0.29184124 -0.30297947 0.050045647 0.010364935 -0.11613127 -0.04593762 -0.21442239 -0.1375024
0.20318112 -0.16640702 -0.06676548 0.08872906 0.037711058 0.015784211 -0.3603704 0.16061035
-0.053568915 -0.043533266 -0.22792307 -0.1077698 -0.060220934 0.08135274 -0.03176594 -0.0213912
-0.16257879 -0.10100244 -0.3157185 -0.19875482 -0.31051734 -0.2276824 0.18957126 -0.13712381
00000000: 5997 323e 4654 c3bd a967 23bd bc05 0ebe
00000010: 123f 0c3e 83b6 a53c 1d1c 0cbe 2e99 233e
00000020: 07cf 173e 8dea f63c 583e 35be 4ea7 903d
00000030: b521 8a3e 98bf 083e 08fa 483d 0459 a63d
00000040: c0fa c5bd 862d 143e 8fd0 88be 761b 8f3d
00000050: 3f93 15bb 1a3b 5abe 5a9d 38be 667e 38be
00000060: 24b2 17be 2187 29be 104d 773d 9f37 b43d
00000070: f98f 84be ae66 f33d 3c02 af3d c5da aa3d
00000080: 03cd f3bc df4d ef3d ca0d 483e 4857 ac3c
00000090: ebc4 08be 5e43 693d f0aa 23bd 35c6 e63d
000000a0: 81ca c4bd 1df9 b0bd 5c94 d4bc 3eee e8bd
000000b0: ae6b ae3e 1383 363d 0c11 f33d 4239 fc3d
000000c0: 7c49 c5bc c40a 953b 4b51 d8bd f1f7 e2ba
000000d0: f1ab 843d 9245 bc3d a2d0 59bd f951 8c3e
000000e0: a443 67be fd18 6dbd bfc7 6d3e 597b acbc
000000f0: 2921 3b3e fea0 78bd c07f 753e 8397 903d
00000100: ef65 4abd 8702 963c 95a8 19be 9ebd 1f3e
00000110: daf0 973d 35fa 51bd e042 633c 451e 4ebe
00000120: 8a8d 86be 8719 4e3d 2d37 aa3d 3d2d a6bd
00000130: 6cf6 e4bc 0615 0fbd 2df0 08be 09dd 24be
00000140: d1fd 47bd 2692 8d3e 98eb 17be 681c b1bc
00000150: a330 59be e74d 243d fc71 ed3d 5204 713e
00000160: 24d4 1bbd 7e34 d93d a95b 7d3e d70d d1bd
00000170: 6790 39bd b80f cdbd 1590 21bd ab06 aebb
00000180: abed be3d 6142 ed3d b7b5 a1be 71a4 5d3e
00000190: 56b8 ec3d 91c9 a23c fff5 bbbd 4738 633d
000001a0: 561f a83d 8ef6 603e cc74 b63d 7e2a 66be
000001b0: 7a57 54be 510d 33be 1b13 813e 4bfd 4a3d
000001c0: eb95 8e3e 4688 e9bd db7d 613e f335 d1bd
000001d0: 7a97 d03d cd56 463c c4bb 143d 09ca 70bc
000001e0: 2cfb 2dbe 0797 66bd 61b1 c63d 2128 fd3d
000001f0: 7b29 c93d a370 5bbe 176a 41be 99aa 2bbd
00000200: 9969 67bc df65 42bc 27ae 45bd 6506 f6bd
00000210: 8ab8 6cbd 032a 14be e34d 12be 5907 8c3e
00000220: 8d6b 50bd 09df 93bd c8e5 44be 83e6 e8bd
00000230: 1fe5 90bd 5473 8f3c 9c11 0cbf 07bb 50be
00000240: a2c4 8cbd 6f7f 363d e26b 423d 3ccb e7bd
00000250: a60d 44be 249e 0dbe 038b 23bd af6c c73d
00000260: a627 653d 2cc7 93be 7339 f1bd fe41 e2bd
00000270: 61aa 5fbd 854d b5bd 0bf2 b2be 2d91 ecbd
00000280: c5e5 47be 5ce6 acbd bba7 8e3d f664 b7bc
00000290: ba8d 0dbe 765f 573c 73f1 edbd 7315 173e
000002a0: 9e91 9ebc 7021 7ebd e968 98be 8a12 f7bd
000002b0: 9cf3 d7bd f046 87be 83cb 40be 51f8 cfbd
000002c0: 318e 1fbd 959a acbd f3f9 ae3c 0fbb c5bd
000002d0: 5477 ef3b 57dd 2c3c a724 283e 900c b63e
000002e0: f891 2c3d 8142 f8bd 64c0 dd3d c057 af3e
000002f0: 051b 803c 59fd f6bd 13ff 82bd 0864 dcbc
00000300: 929b 97be 99fc 97be bc81 383c 3931 87be
00000310: 7515 00be f7fb 1cbe ca36 6fbe 19a9 903d
00000320: 252a febd f853 f83d 8b8b 263e 1ddd 613d
00000330: b23b e9bc d851 92be a838 433e d3ed 883d
00000340: d7f6 90b9 1e32 04bd a4bc 32be b425 8bbd
00000350: 53a4 313d 2eb3 42be f713 f53d 50ee 73bd
00000360: bfb8 92bd 4936 a6be ab44 03be db51 353e
00000370: aa95 80be 32e3 8bbd 97f5 f43d c121 81be
00000380: 376c 95be 2020 9bbe aafc 4c3d b0d1 293c
00000390: 3bd6 edbd 1629 3cbd 8b91 5bbe 6ecd 0cbe
000003a0: b60e 503e 9a66 2abe 57bc 88bd 95b7 b53d
000003b0: e976 1a3d e44d 813c 7882 b8be 0a77 243e
000003c0: 146b 5bbd f04f 32bd aa64 69be 6ab6 dcbd
000003d0: 3aaa 76bd 449c a63d 011d 02bd 993c afbc
000003e0: 0e7b 26be 5eda cebd dba5 a1be 6286 4bbe
000003f0: 21fc 9ebe 9325 69be f81e 423e 2f6a 0cbe
