Assets/DodgeObstacle.onnx (onnx, 206267 bytes, 9 tensors)

action_model._continuous_distribution.mu.weight f4 [1, 128]
0	0x3b84938b	0.004045909
1	0xbc474ed5	-0.012164791
2	0x3a9c08cc	0.0011904477
3	0x3bc5682c	0.006024381
4	0xba9a08fe	-0.0011751947
5	0x3c72c187	0.014816648
6	0x3c02c268	0.00798092
7	0xbca1ce37	-0.019751651
8	0x3b23c8ac	0.0024991436
9	0xbb0c18a4	-0.0021376992
10	0x3c19d475	0.009389033
11	0x3aa0b1c8	0.0012260014
12	0xbc1cfe1c	-0.009582069
13	0xbb452541	-0.003008202
14	0xbc01dba4	-0.007925902
15	0x3cabe744	0.0209843
16	0xbc0b7ccd	-0.008513642
17	0x3cd12f53	0.025535261
18	0xbc0deb8d	-0.008662117
19	0x3c424784	0.011857871
20	0x3c7d18e8	0.015447833
21	0x37f1dbc7	2.883178e-05
22	0x3bc63028	0.006048221
23	0x3c758b52	0.01498683
24	0xbbd8f7fd	-0.0066213594
25	0xbb206430	-0.002447378
26	0x3bacbbbf	0.0052714045
27	0x3935b8c8	0.00017330342
28	0xbc8d7390	-0.017267019
29	0x38690cd0	5.556346e-05
30	0xbc852094	-0.016250886
31	0x3bedd613	0.0072581857
32	0xbbfbb20c	-0.007681137
33	0x3aa8624a	0.0012846675
34	0xbc926227	-0.017869068
35	0xbc5d0483	-0.013489845
36	0x3b932450	0.004490413
37	0xbc2bfe9e	-0.010497717
38	0x3bd341a9	0.0064470363
39	0xbb2d4ca1	-0.002644338
40	0x3be0f203	0.0068647875
41	0x3b5a40a4	0.003330269
42	0xbc256f84	-0.010097388
43	0x3c6d7256	0.014492592
44	0xbb03da59	-0.002011916
45	0xbb5e13c7	-0.00338863
46	0xbc834907	-0.016026033
47	0xbad3c721	-0.0016157367
48	0x3bf685a0	0.0075232536
49	0x3c238553	0.009980517
50	0x3a751b65	0.00093500904
51	0x3b81785b	0.003951115
52	0x3ca3a2c1	0.019975068
53	0xbbc3503d	-0.005960493
54	0x3bbbd354	0.0057319794
55	0x3a92891e	0.001117978
56	0x3c1632be	0.009167371
57	0x3bdaf054	0.0066814814
58	0xbaa6e1a3	-0.001273204
59	0xbc4f50fd	-0.012653586
60	0x3aa413c7	0.0012518101
61	0xbc1ee528	-0.00969819
62	0x3cb618f0	0.022228688
63	0x3bab0a08	0.0052197017
64	0xbc8eab1d	-0.017415578
65	0x3bb927fc	0.0056505185
66	0xbcbcfa1d	-0.023068482
67	0xbc169222	-0.009190114
68	0xbbad52e5	-0.005289423
69	0x3bb06c36	0.0053839935
70	0x3cba9e2e	0.022780504
71	0x3bd7f664	0.0065906513
72	0x3c88b165	0.01668615
73	0xbbe9e6d1	-0.007138111
74	0x3bb069d2	0.0053837085
75	0xbb604ca8	-0.0034225378
76	0x3c7f5608	0.015584476
77	0xbcbbbb36	-0.022916418
78	0x3b7e7d57	0.0038832033
79	0xbb2cc13d	-0.0026360296
80	0xbc75e19f	-0.015007406
81	0x3aa32cfb	0.0012449318
82	0x3c123981	0.008924843
83	0xbc4a1331	-0.012333677
84	0x3a18ed4b	0.0005833699
85	0x3befaf06	0.0073145656
86	0xbc06b0dc	-0.0082208775
87	0x3c6b9f87	0.014381296
88	0x3c8a4dce	0.016882803
89	0xbc939692	-0.018016133
90	0xbb9f5cec	-0.004863372
91	0xbc165467	-0.0091753965
92	0x3b85c0c4	0.0040818173
93	0x3c27a8b5	0.010233094
94	0x3c8a5b65	0.016889283
95	0x3c2bd226	0.010487115
96	0x3cc03146	0.023460995
97	0xbbf18d95	-0.007371614
98	0x3c11fff2	0.00891112
99	0xb8a4ba21	-7.8547986e-05
100	0x3c821d9e	0.015883263
101	0x3ba434f4	0.0050111953
102	0x3be5ccca	0.007012938
103	0xbb0621da	-0.0020466954
104	0x3b84f5fa	0.004057643
105	0x3c0e7cfc	0.008696791
106	0xbc0ff78e	-0.008787049
107	0xbc70ec09	-0.014704713
108	0x3ca72c3f	0.02040684
109	0x3ca019c3	0.019543534
110	0xbca572c6	-0.02019633
111	0x3bae7ce4	0.0053249467
112	0x3c78bdd4	0.015181977
113	0xbb885ded	-0.0041615875
114	0xbc9a933f	-0.01886904
115	0xbaeb554e	-0.00179545
116	0x38677e95	5.519258e-05
117	0x3b8c13ec	0.004274836
118	0xbc82101f	-0.015876828
119	0xbcbf7980	-0.023373365
120	0xbb683953	-0.0035434559
121	0xb90087c5	-0.0001225761
122	0x3c27aa8c	0.010233533
123	0x3b6848e1	0.003544383
124	0xbc895b11	-0.016767057
125	0xbc4445da	-0.011979545
126	0xbb9e1dac	-0.0048253145
127	0x3c21c5c7	0.009873814

network_body._body_endoder.seq_layers.0.bias f4 [128]
0	0xbc98d398	-0.018655583
1	0xbc97c964	-0.018528648
2	0x00000000	0.0
3	0x3b821685	0.0039699697
4	0xbca26a98	-0.019826218
5	0xbcb15dc7	-0.021651162
6	0x39df3c25	0.00042578686
7	0xbc77097d	-0.015077946
8	0x3c69d6f0	0.0142724365
9	0xbb80e51c	-0.003933562
10	0x3c392cd6	0.011302194
11	0xbd0260fd	-0.031830776
12	0x3c591c97	0.013251445
13	0xbb751a0e	-0.0037399563
14	0x3ca1db10	0.019757777
15	0xbda9373c	-0.08262488
16	0xbd177ff9	-0.03698728
17	0x8ea9b47e	-4.1835524e-30
18	0x00000000	0.0
19	0x042e8c1d	2.0517939e-36
20	0xbca0061d	-0.019534165
21	0xbd03cec0	-0.032179594
22	0x3ca415a1	0.020029845
23	0x3d309f44	0.043120638
24	0x00000000	0.0
25	0x3c3ee11c	0.01165035
26	0x3b011f23	0.0019702397
27	0x3cb0b1a2	0.021569077
28	0x3cadf67e	0.0212357
29	0xbc88fdca	-0.016722579
30	0x3d7a968d	0.061178733
31	0x00000000	0.0
32	0xbc80ebe1	-0.015737476
33	0x00000000	0.0
34	0xbc8240f0	-0.015900105
35	0xbd197cff	-0.03747272
36	0xbd12d83c	-0.03585075
37	0xbd04ad0a	-0.032391585
38	0xbcfdac13	-0.03096584
39	0xba00677c	-0.0004898233
40	0x3cb635fd	0.02224254
41	0xbc77d6c3	-0.015126887
42	0xbcfef33e	-0.031121846
43	0x00000000	0.0
44	0xbc80b3d0	-0.015710741
45	0xbd28ba2b	-0.04119317
46	0x3d1ef6bc	0.038809523
47	0xbcb23dcf	-0.021757988
48	0x3cfccc61	0.030859174
49	0x3bef7149	0.007307206
50	0x00000000	0.0
51	0x00000000	0.0
52	0x3df05efe	0.11736868
53	0xbd209fdb	-0.03921495
54	0xbbc5cf2c	-0.0060366597
55	0xbcf02157	-0.029312773
56	0xbb0fb078	-0.0021925252
57	0x3ca85ffb	0.02055358
58	0x3d7a6a7f	0.06113672
59	0xbcbf1c57	-0.023328943
60	0xbc1b26c2	-0.00946969
61	0x00000000	0.0
62	0xbc29d1ff	-0.010365008
63	0x3c9c6809	0.019092577
64	0xbbc0738e	-0.00587315
65	0xbd51dc35	-0.051235396
66	0xbd42b654	-0.047537163
67	0x3c43d569	0.011952736
68	0xbd251d6a	-0.040311255
69	0x3c94a245	0.018143782
70	0xbcda469a	-0.026644994
71	0xbd0a3125	-0.033738274
72	0xbc7fd6bd	-0.015615162
73	0xbc4ae4a7	-0.0123836165
74	0xbd674696	-0.0564638
75	0x3ce650f2	0.02811477
76	0xbd07b6b7	-0.033133235
77	0xbd13a294	-0.03604372
78	0xbce3a9f9	-0.02779101
79	0xbd05fcc8	-0.032711774
80	0xbcf94f2b	-0.030433258
81	0x37b7e985	2.1924041e-05
82	0xbd6b12a9	-0.057390843
83	0x00000000	0.0
84	0xbd0bbbb5	-0.03411456
85	0xbd23a41d	-0.039951432
86	0xbd75938b	-0.05995516
87	0xbd3171d2	-0.043321438
88	0xbd84c5d5	-0.06483046
89	0xbd0a4435	-0.033756454
90	0x00000000	0.0
91	0xbd1a6841	-0.03769708
92	0xbd27eab4	-0.040995315
93	0xbcf37d86	-0.02972294
94	0x00000000	0.0
95	0x3cbfe1cc	0.023423098
96	0xbc101b1f	-0.008795529
97	0xbb43dd0e	-0.0029886398
98	0xbc2a58b0	-0.010397121
99	0xbb43bbf1	-0.002986666
100	0x00000000	0.0
101	0xbd520bed	-0.051280905
102	0xbc91629d	-0.017747218
103	0x3cba77ff	0.022762297
104	0x3d07f411	0.033191744
105	0xbd01a305	-0.03164961
106	0xbc89d618	-0.01682572
107	0xbd10472a	-0.035224117
108	0xbd1b5742	-0.037925012
109	0xbc8418ec	-0.016125165
110	0x3da3233a	0.07965703
111	0xbc517ef8	-0.012786619
112	0x3c39809b	0.011322166
113	0xbc0efe24	-0.008727584
114	0x3bfafafe	0.007659315
115	0xbc3e455f	-0.011613219
116	0x3d9a89b2	0.075457945
117	0xbd46c1c3	-0.04852463
118	0x3bbb9b1b	0.005725277
119	0x3b9e04bb	0.0048223413
120	0x3b8ec7a8	0.004357297
121	0x99a6cde4	-1.7247156e-23
122	0x91d4183e	-3.3462643e-28
123	0xbbbbd518	-0.00573219
124	0xbcb46037	-0.022018535
125	0x00000000	0.0
126	0x3c5f25cf	0.013619854
127	0x3d0f6077	0.035004105

network_body._body_endoder.seq_layers.0.weight f4 [128, 9]
0	0x3ea7e114	0.32788908
1	0xbe7e3b01	-0.24827196
2	0xbe8f81c5	-0.28028694
3	0xbe3d4b5e	-0.18485782
4	0xbe39913c	-0.18121809
5	0x3e26e00c	0.16296405
6	0x3e517dd7	0.2045816
7	0x3e455b0a	0.1927301
8	0x3ded31c2	0.11581756
9	0xbec294ac	-0.38004053
10	0x3e9df7ca	0.3085311
11	0x3d28c770	0.041205823
12	0xbe7c74d5	-0.24653943
13	0xbe5b21c1	-0.21399595
14	0xbcb15b26	-0.021649908
15	0x3e985616	0.29753178
16	0x3f32b35b	0.69804925
17	0xbe32cf9f	-0.17462014
18	0xbec1840e	-0.37796062
19	0xbe16c892	-0.14724949
20	0x3d834283	0.064091705
21	0x3d0c6f2b	0.034285706
22	0xbcfb95bc	-0.030711047
23	0xbedc848f	-0.43069884
24	0xbe5bd9c8	-0.21469796
25	0x3e31cb37	0.17362677
26	0x3d211258	0.039324135
27	0xbec4dd43	-0.3845006
28	0x3ecefaaf	0.4042563
29	0x3e6ba6a3	0.23012786
30	0x3ecb2ba9	0.39681748
31	0xbdaad1f2	-0.08340825
32	0x3e0bbd42	0.13646415
33	0xbe8bbb2a	-0.27291232
34	0x3d420de2	0.04737652
35	0x3ea44601	0.3208466
36	0x3efe919e	0.49720472
37	0x3e52e6cc	0.20595855
38	0x3eb2d2f1	0.3492656
39	0xbe055511	-0.13020732
40	0xbb8ddc0a	-0.004329209
41	0x3dfc424f	0.12317335
42	0x3ea134ac	0.31485498
43	0x3f18ab7f	0.5963668
44	0xbd413042	-0.047165163
45	0xbea1420a	-0.31495696
46	0x3ea86ed7	0.32897064
47	0x3f5be3a0	0.85894203
48	0xbe26ac64	-0.162767
49	0x3e9c760c	0.30558813
50	0xbea855f7	-0.32878086
51	0x3e3a5d4d	0.18199654
52	0x3eb689ba	0.35651952
53	0xbe8ba687	-0.27275488
54	0x3d6596df	0.056052085
55	0xbee6d5b8	-0.4508493
56	0x3ee83f09	0.45360592
57	0x3f2f6864	0.6851866
58	0x3ef37434	0.47549593
59	0x3d80acb4	0.062829405
60	0x3c8470f8	0.016167149
61	0xbf018ee7	-0.50608677
62	0x3eb55667	0.35417482
63	0x3d0fd11f	0.035111543
64	0x3eb9425a	0.36183435
65	0xbeac9eb0	-0.3371482
66	0xbeb527ef	-0.3538203
67	0x3e9f71de	0.3114156
68	0x3e14bf71	0.14526154
69	0xbea1fd56	-0.31638592
70	0x3d526116	0.05136212
71	0x3ec27dab	0.37986502
72	0xbea812d1	-0.32826856
73	0x3e1e4585	0.15456207
74	0x3e9cc7ab	0.30621085
75	0xbea6d7e2	-0.3258658
76	0x3d8a38a9	0.06749088
77	0xbf0b5118	-0.54420614
78	0xbe1e20b4	-0.15442163
79	0x3d6663c9	0.056247506
80	0x3ed73ae5	0.4203712
81	0xbe07681d	-0.1322331
82	0xbdf63c89	-0.12023265
83	0x3e72663d	0.23671813
84	0x3ee2f423	0.44326887
85	0x3e49d12f	0.19708703
86	0x3ee10e74	0.4395634
87	0xbecf2907	-0.4046099
88	0xbd033126	-0.032029293
89	0xbe0482cb	-0.12940519
90	0x3dc58b4b	0.09645709
91	0x3ee9ba7a	0.45650083
92	0x3eaa33ef	0.33242747
93	0xbc891bdb	-0.016736915
94	0x3d34d47c	0.044147953
95	0xbe675f43	-0.22594933
96	0x3e803a01	0.25044253
97	0xbdb1fd81	-0.0869093
98	0xbd44f799	-0.04808769
99	0x3d4cc1cd	0.04998951
100	0xbd7d339a	-0.06181679
101	0x3f008876	0.5020822
102	0xbe1708b0	-0.14749408
103	0xbf09629e	-0.536661
104	0x3c813c26	0.015775751
105	0x3de1f402	0.11032869
106	0xbde3d134	-0.11123887
107	0x3e98ccbe	0.29843706
108	0x3dbff49d	0.09372828
109	0xbd9b2d2e	-0.07576977
110	0x3d9ae8f9	0.07563967
111	0xbf12f898	-0.57410574
112	0x3e65e940	0.22452259
113	0x3cc05cc2	0.02348173
114	0x3d81f3e4	0.063453466
115	0x3e93bdd8	0.28855777
116	0xbcb59150	-0.022164017
117	0x3bb68879	0.005570468
118	0x3ebf70e5	0.3739082
119	0x3eebeb2a	0.46077853
120	0x3d3b7afb	0.04577158
121	0x3f2b80c3	0.6699335
122	0xbea6b5e2	-0.3256064
123	0x3db4e58f	0.08832847
124	0x3f4f0229	0.8086267
125	0xbe6bda13	-0.23032407
126	0xbd81a80a	-0.06330879
127	0x3d40867d	0.047003258
128	0x3e860899	0.26178434
129	0x3d99afba	0.0750422
130	0x3e0009a0	0.12503672
131	0xbe24b0f9	-0.16083135
132	0x3f424d52	0.7589923
133	0xbeb31407	-0.34976217
134	0x3e3d5f4e	0.18493387
135	0x3eb10992	0.34577614
136	0x3f0ec9eb	0.5577685
137	0x3ef8ea72	0.48616368
138	0x3e4dd865	0.20102079
139	0xbd8b99c9	-0.068164416
140	0xbf069e9c	-0.5258577
141	0x3cd747c6	0.026279341
142	0xbeb32cc6	-0.34995097
143	0xbe90c36b	-0.28274092
144	0x3ba56579	0.005047497
145	0x3f0732cb	0.5281188
146	0x3e3c003b	0.18359463
147	0xbd6ee386	-0.058322452
148	0xbed79558	-0.42106128
149	0x3b83e23a	0.004024771
150	0xbed9bbe3	-0.4252616
151	0xbea26ee9	-0.31725243
152	0x3f2d9aff	0.6781463
153	0x3e2b65aa	0.16738
154	0xbddf2810	-0.10896313
155	0x3e067b0b	0.13132875
156	0x3e350c48	0.17680466
157	0x3e598dc8	0.21245492
158	0xbd7f003e	-0.06225609
159	0xbe66cb4f	-0.22538494
160	0xbde656bc	-0.11247012
161	0xbf343e8e	-0.7040795
162	0x3da1b556	0.07895915
163	0x3e492c3a	0.19645777
164	0xbd1553d2	-0.03645689
165	0x3c7f5530	0.015584275
166	0x3ebd472c	0.36968362
167	0xbf423fde	-0.75878704
168	0xbf028264	-0.5098021
169	0xbeffd2c2	-0.49965483
170	0x3e78a5b7	0.24281965
171	0xbf1eee71	-0.6208258
172	0xbeba0af0	-0.3633647
173	0xbe065d45	-0.13121517
174	0x3e633ea2	0.22191861
175	0x3f7b41b0	0.98147106
176	0xbe9632aa	-0.2933553
177	0x3d110c13	0.035411905
178	0x3eab537c	0.3346213
179	0xbea63ec0	-0.3246975
180	0xbe1407d1	-0.14456107
181	0xbec0de80	-0.37669754
182	0xbe9907d3	-0.29888782
183	0xbead344b	-0.3382896
184	0x3dd7c3ed	0.10535417
185	0xbd01bed7	-0.03167614
186	0xbeebf824	-0.46087754
187	0x3efb6dee	0.49107307
188	0x3f2faba5	0.68621284
189	0xbde7a49a	-0.11310692
190	0xbe9b5af1	-0.3034282
191	0xbb4b8759	-0.0031056015
192	0x3cc0eafb	0.023549547
193	0x3e0b2fe7	0.13592492
194	0x3f1a2563	0.602133
195	0xbe933d90	-0.28757906
196	0x3d8a9267	0.06766205
197	0x3e19b049	0.15008654
198	0xbf108934	-0.56459355
199	0xbf2aa53e	-0.6665839
200	0xbe2b5340	-0.16730976
201	0xbc136864	-0.008997057
202	0x3ee801d9	0.4531391
203	0x3eaf666d	0.34257832
204	0x3f0a30ed	0.53980905
205	0x3e887ac9	0.26656178
206	0xbec723ba	-0.38894445
207	0x3e6f68b8	0.23379791
208	0x3eada969	0.33918312
209	0x3e086580	0.13319969
210	0xbe48dea3	-0.19616179
211	0x3f27f468	0.6560731
212	0xbc8308d3	-0.015995419
213	0xbb9c8815	-0.0047769644
214	0xbde804d0	-0.11329043
215	0xbd97ae1c	-0.074062556
216	0xbd84cca6	-0.06484346
217	0x3e5a2c83	0.21306042
218	0x3e01fdca	0.12694469
219	0xbe3d8afc	-0.1851005
220	0x3f324f9c	0.69652724
221	0xbf5231a2	-0.82106984
222	0xbc70819c	-0.014679339
223	0x3abfd49a	0.0014635504
224	0xbf100e54	-0.56271863
225	0x3cff2c41	0.031149032
226	0xbe85f730	-0.26165152
227	0x3eccf582	0.40031058
228	0xbe2ce981	-0.1688595
229	0x3d8fcde7	0.07021695
230	0xbb760d53	-0.0037544563
231	0x3e6af998	0.22946775
232	0xbd87863e	-0.066174015
233	0xbe8135fc	-0.252365
234	0xbeddae68	-0.43297124
235	0xbe4b6583	-0.19862942
236	0x3f03c0c8	0.51466036
237	0xbf282d46	-0.6569408
238	0x3e053288	0.13007557
239	0xbf1bb2ae	-0.6081952
240	0x3c09c6af	0.008409186
241	0x3e299a90	0.16562867
242	0x3e357092	0.17718723
243	0x3d44746a	0.047962584
244	0xbeadc636	-0.33940285
245	0x3ee8ece1	0.45493224
246	0x3ea8d85c	0.3297757
247	0x3ba4afc7	0.005025837
248	0xbf15e58a	-0.58553374
249	0x3e68a6db	0.227199
250	0x3e7b11e1	0.24518539
251	0x3ee28b7e	0.4424705
252	0xbf08630b	-0.5327613
253	0xbe29f06f	-0.16595624
254	0xbef25da9	-0.47337082
255	0xbe9896d1	-0.29802564

network_body._body_endoder.seq_layers.2.bias f4 [128]
0	0x3c2d0e72	0.010562526
1	0xbca370f2	-0.019951317
2	0xb5837ea0	-9.797113e-07
3	0xbc906337	-0.017625434
4	0xbbfc40cb	-0.0076981536
5	0xb685e0c1	-3.9898737e-06
6	0x00000000	0.0
7	0xbc4fa6b9	-0.012674027
8	0x2a3ad7c4	1.6594977e-13
9	0xbc536890	-0.012903348
10	0xbcbb2cf8	-0.022848591
11	0x3cfa2e8c	0.030539773
12	0xbcf38799	-0.029727744
13	0xbd066b7a	-0.03281734
14	0x00000000	0.0
15	0xbc35f247	-0.011105127
16	0xbbeac0ce	-0.0071640974
17	0x00000000	0.0
18	0x00000000	0.0
19	0xbc3919eb	-0.011297683
20	0xbc42b110	-0.011883035
21	0xa61db191	-5.4710964e-16
22	0xba0aff88	-0.00053023594
23	0xbc93eb2c	-0.018056475
24	0x00000000	0.0
25	0x128f1b1a	9.03125e-28
26	0x00000000	0.0
27	0xbbb530c0	-0.005529493
28	0xbcf7c985	-0.03024746
29	0xbc28c155	-0.0103
30	0xbc97af21	-0.018516125
31	0xbc1e5d3d	-0.009665784
32	0xbcf14b14	-0.029454745
33	0xbc846ccd	-0.016165162
34	0xbc008f91	-0.007846729
35	0xbac3b06d	-0.0014929898
36	0xbc808402	-0.015687946
37	0xab82e010	-9.299245e-13
38	0xbc923175	-0.017845849
39	0xbc368b03	-0.011141541
40	0xbd13a76e	-0.036048345
41	0xbcc3d121	-0.023903431
42	0xbbd862fd	-0.006603597
43	0xbc1199cf	-0.0088867685
44	0xbc46212f	-0.0120928725
45	0xbc41f6fa	-0.011838669
46	0x00000000	0.0
47	0xbc45ffd1	-0.012084917
48	0xbc534d1b	-0.012896801
49	0xbca03634	-0.019557096
50	0xbce39c65	-0.027784536
51	0xaebbe07c	-8.543652e-11
52	0x39e27234	0.00043191167
53	0xbc6fe5fd	-0.014642236
54	0xbcc24b09	-0.02371742
55	0xbc056c2d	-0.008143467
56	0xbc9b86ad	-0.018985117
57	0xa9a87b42	-7.4820805e-14
58	0xbc560a86	-0.013064032
59	0xbc95e890	-0.018299371
60	0xbca956fd	-0.020671362
61	0xbc8c8761	-0.017154397
62	0xbc425464	-0.011860941
63	0x1d28b27d	2.2326891e-21
64	0xbd006b1e	-0.031352155
65	0xbc11e7e9	-0.008905389
66	0xbd0780e0	-0.03308189
67	0xab9cb65e	-1.1135084e-12
68	0xbba2aa12	-0.0049641216
69	0xbc02c83c	-0.00798231
70	0xbc3c4314	-0.011490602
71	0x00000000	0.0
72	0xbccd5c6b	-0.025068482
73	0xbcc44ae4	-0.023961492
74	0xbca80ab1	-0.02051291
75	0xbc9cea17	-0.019154591
76	0xbc80d8a9	-0.015728312
77	0xbd020162	-0.0317396
78	0xbc82f3d4	-0.015985407
79	0xbc936978	-0.017994627
80	0x00000000	0.0
81	0x00000000	0.0
82	0x0a2277e1	7.822563e-33
83	0xbcb8bffc	-0.022552483
84	0x00000000	0.0
85	0xbca7bd8a	-0.020476121
86	0x00000000	0.0
87	0xbcffd429	-0.031229096
88	0xbc839850	-0.01606384
89	0x00000000	0.0
90	0xbbb22f28	-0.0054377504
91	0xbc164998	-0.00917282
92	0xbc1846a4	-0.009294186
93	0xbc076a7e	-0.008265136
94	0xbc07096c	-0.008241992
95	0xbd072d14	-0.033001974
96	0xbbd696e6	-0.00654875
97	0xb697a17c	-4.51895e-06
98	0x00000000	0.0
99	0xbb2eb0e9	-0.002665574
100	0xbce9b69b	-0.028529456
101	0x00000000	0.0
102	0xbc815755	-0.015788713
103	0xbc09f4a8	-0.008420147
104	0xbbc73c05	-0.006080153
105	0xbcf029ac	-0.029316746
106	0xbc761481	-0.015019537
107	0xbc701b6b	-0.014654974
108	0x00000000	0.0
109	0xbc9bfe1d	-0.01904207
110	0xa5bdfe97	-3.295879e-16
111	0xbd20c8d8	-0.03925404
112	0xbc1770b2	-0.009243177
113	0xbcb0be60	-0.021575153
114	0xbce86189	-0.02836682
115	0xba27ec12	-0.00064057217
116	0xbcaf341e	-0.021387156
117	0xbbe085fc	-0.0068519097
118	0xbbe42d2f	-0.006963394
119	0xbc2e842a	-0.010651628
120	0x3bdb19d1	0.006686427
121	0xbc0b225e	-0.0084920805
122	0xbc4b4e19	-0.012408757
123	0xbc23c6d2	-0.009996133
124	0xb6a2f701	-4.8567313e-06
125	0xbc6bf45d	-0.014401522
126	0xbce2dbdf	-0.027692733
127	0x3c9156eb	0.017741641

network_body._body_endoder.seq_layers.2.weight f4 [128, 128]
0	0x3db8646d	0.0900353
1	0x3dfee29b	0.12445565
2	0x3d6a3af4	0.05718513
3	0x3da27d55	0.079340614
4	0x3e12c9e7	0.14334832
5	0xbe319dd4	-0.17345363
6	0x3d7604ec	0.060063288
7	0x3d072466	0.032993697
8	0xbd281ff8	-0.041046113
9	0xbd442887	-0.047890212
10	0x3dda32b4	0.10654202
11	0xbdc56109	-0.096376486
12	0xbd3f7496	-0.046742044
13	0xbd23aafd	-0.03995799
14	0x3d8d9c07	0.069145255
15	0x3dbfe847	0.09370475
16	0x3e5ff8d7	0.21872269
17	0x3c94e7ea	0.018176991
18	0x3cf951cd	0.030434513
19	0x3c78fc9d	0.015196946
20	0xbc8652b2	-0.016396854
21	0xbd70aa74	-0.058756307
22	0x3c866d24	0.016409464
23	0xbd00daaa	-0.031458534
24	0xbd923b5b	-0.071402274
25	0xbe234f99	-0.15948333
26	0x3ce3039b	0.02771168
27	0xbd90677f	-0.0705099
28	0x3bf33fdb	0.0074233836
29	0xbd30e443	-0.043186437
30	0x3be5d44a	0.007013832
31	0xbe05b9ed	-0.13059206
32	0x3df99de2	0.12188317
33	0xbe8b13c8	-0.2716353
34	0x3e0d45a5	0.13796099
35	0xbb376bd5	-0.0027987857
36	0x3aaeda1c	0.0013340148
37	0x3d7faa8e	0.062418513
38	0x3dcba6f7	0.099439554
39	0xbd9f6764	-0.07783392
40	0x3e4d5f0b	0.20055787
41	0x3e0df168	0.1386162
42	0xbda7a175	-0.08185092
43	0x3b9979c3	0.0046837046
44	0x3e26535d	0.16242738
45	0x3de09b11	0.109670766
46	0x3dc91c4e	0.09819852
47	0x3cd3e5bb	0.02586638
48	0x3e02164e	0.12703821
49	0x3c956f9c	0.018241696
50	0x3c108171	0.008819924
51	0xbcec688b	-0.028858444
52	0x3def818d	0.11694632
53	0xbe0d1b8f	-0.13780044
54	0xbd0e9f84	-0.034820095
55	0xbdaa8e67	-0.08327942
56	0x3d2124bc	0.039341673
57	0x3d65aa5f	0.05607068
58	0x3e3b6161	0.18298866
59	0x3caa561c	0.020793013
60	0x3e6d0f0c	0.23150271
61	0xbd8d874b	-0.06910571
62	0xbdfdc92e	-0.123918876
63	0xbdf35984	-0.11882308
64	0xbe02b760	-0.12765265
65	0xbc7a3363	-0.015271041
66	0xbda35038	-0.07974285
67	0x3cc97e72	0.024596427
68	0x3dad2dc0	0.08455992
69	0xbda01815	-0.07817093
70	0x3e0bcec9	0.13653101
71	0xbaeb1620	-0.0017935671
72	0x3d817ee2	0.06323029
73	0x3d40a17c	0.047029004
74	0xbd981a55	-0.074268974
75	0x3d826ac0	0.06368017
76	0x3d20148a	0.039082088
77	0x3d64761c	0.0557767
78	0x3d499a73	0.04921956
79	0xbdbcbe98	-0.092160404
80	0x3c9fd5d6	0.019511145
81	0x3e323d64	0.17406231
82	0x3d3728a2	0.044716485
83	0x3cc6ba51	0.024258764
84	0x3e0ada71	0.13559891
85	0x3ab65e46	0.0013913594
86	0x3e644995	0.22293694
87	0xbc7b2498	-0.015328549
88	0x3df42df8	0.1192283
89	0xbc809190	-0.01569441
90	0x3d8a4320	0.06751084
91	0x3bd346f9	0.0064476696
92	0x3d106be0	0.035259128
93	0xbdedfb5e	-0.1162021
94	0x3d4f872a	0.050666012
95	0x3d193f01	0.0374136
96	0x3db3b0e6	0.08773975
97	0x3dba343b	0.090919934
98	0xbd7741ec	-0.060365602
99	0xbb81366d	-0.0039432556
100	0x3da3f8f6	0.0800647
101	0xbdc37ad6	-0.095449135
102	0xbd642c3e	-0.055706255
103	0xbc1e788c	-0.009672295
104	0x3b28a1d2	0.0025731218
105	0x3b2d29c2	0.0026422595
106	0x3d61b00a	0.055099525
107	0x3c9e0397	0.019288821
108	0x3e016002	0.1263428
109	0x3ccd1270	0.025033206
110	0xbd880b98	-0.06642836
111	0xbdfab1c8	-0.1224094
112	0xbd910e8d	-0.070828535
113	0x3d08aa56	0.03336557
114	0xbd4fd7d5	-0.050742943
115	0x3d472a19	0.04862413
116	0xbd429202	-0.047502525
117	0xbdbc3d0f	-0.091913335
118	0xbe11879b	-0.14211886
119	0x3ded8d00	0.11599159
120	0x3e4a8707	0.19778071
121	0xbe3a8a75	-0.1821688
122	0xbd2d0b3b	-0.04224704
123	0x3d90011c	0.070314616
124	0xbdf696ac	-0.12040457
125	0xbcfdb0c9	-0.030968087
126	0x3da332e9	0.07968695
127	0x3c4038fd	0.011732337
128	0x3cb5f41b	0.022211125
129	0x3ae0b83e	0.0017144752
130	0xbda000fd	-0.078126885
131	0xbe09da42	-0.13462165
132	0xbdaa8dea	-0.08327849
133	0xbe501c85	-0.2032338
134	0x3d42fa6f	0.047602113
135	0x3df9010e	0.12158404
136	0x3dd57e6d	0.104245044
137	0xbc91065d	-0.01770323
138	0x3e1feb05	0.15616997
139	0x3de0155e	0.109415755
140	0x3d084101	0.033265118
141	0xbdba8bcb	-0.09108695
142	0xbcf7da29	-0.030255394
143	0x3d346ea3	0.044050824
144	0x3de4c798	0.11170882
145	0xbc08e50a	-0.008355388
146	0x3b53019c	0.0032197004
147	0x3e24a2f5	0.16077788
148	0x3d96500f	0.07339489
149	0xbd0fa625	-0.035070557
150	0xbd0fb303	-0.03508283
151	0xbdaa7074	-0.0832223
152	0x3d633309	0.055468593
153	0xbe08570d	-0.13314457
154	0xbc841343	-0.016122466
155	0xba174316	-0.00057701895
156	0xbe4f0687	-0.20217334
157	0xbdc2a1c6	-0.09503512
158	0xbd0ad7a9	-0.033897076
159	0xbd745238	-0.059648722
160	0xbc4262c9	-0.0118643725
161	0xbe3fb7e9	-0.187225
162	0xbccb6634	-0.024829008
163	0x3aaffcf4	0.0013426826
164	0xbb626708	-0.0034546275
165	0xbd84b963	-0.06480672
166	0xbdc1e522	-0.09467532
167	0x3bac238a	0.00525326
168	0xbdf54b1f	-0.11977219
169	0xbd94103e	-0.072296605
170	0xbd904ea8	-0.070462525
171	0x3db7c9f2	0.08974065
172	0xbe019056	-0.12652716
173	0xbcd3a9e7	-0.025837852
174	0x3dbd8a04	0.0925484
175	0xbdf5079f	-0.11964344
176	0x3db592d1	0.08865894
177	0x3c08fa5f	0.008360474
178	0xbc26f1bb	-0.010189469
179	0x3e33a784	0.17544371
180	0x3df5d2d9	0.120031066
181	0xbc5f0bbe	-0.013613639
182	0x3bbdaf56	0.005788724
183	0xbce9036c	-0.028444014
184	0xbe2b4968	-0.16727221
185	0x3c85ea60	0.01634711
186	0x3cc6bef6	0.02426098
187	0xbe630b66	-0.22172317
188	0xbd18a19b	-0.037263494
189	0xbcb27cb9	-0.021787988
190	0xbd134b71	-0.03596062
191	0x3d02a6fc	0.03189753
192	0x3c0bca28	0.0085320845
193	0xbd4618a8	-0.048363358
194	0xbd785b29	-0.060633812
195	0x3c14f9d4	0.009092767
196	0xbe0ad3cd	-0.13557358
197	0x3cd7444b	0.026277682
198	0x3c1e3850	0.009656981
199	0xbd070b06	-0.032969497
200	0xbd463ff7	-0.048400845
201	0xbd100ce9	-0.035168562
202	0xbe01a37d	-0.12660022
203	0xbe15fa2b	-0.14646213
204	0xbd70f46d	-0.058826853
205	0x3dcfe232	0.10150565
206	0xbd142a4b	-0.036173146
207	0x3d695982	0.056970127
208	0xbd0e9912	-0.034813948
209	0xbd00b0d8	-0.03141865
210	0xbe48fa1a	-0.19626656
211	0xbd9fb237	-0.07797664
212	0x3c17ff46	0.0092771705
213	0xbd7cf215	-0.061754305
214	0xbcc51209	-0.024056451
215	0x3e3a6fe3	0.18206744
216	0x3d61d619	0.05513582
217	0x3d8520c3	0.065003894
218	0x3c557558	0.013028465
219	0x3d813ef2	0.06310834
220	0x3bbf874a	0.005844985
221	0x3ca1067b	0.01965641
222	0xbd4e7f8c	-0.050414607
223	0x3e02b1ca	0.12763134
224	0x3d51e128	0.051240116
225	0xbe28346d	-0.16426249
226	0xbd8abd75	-0.06774417
227	0x3d042b24	0.032267705
228	0x3ddb2c34	0.107017905
229	0xbd53e347	-0.05173042
230	0x3d986042	0.07440235
231	0x3ddc2e28	0.10750991
232	0xbd14541a	-0.036213018
233	0xbd964a57	-0.07338398
234	0xbcada727	-0.021197869
235	0xbd8cbb7d	-0.06871698
236	0xbd3461d6	-0.044038616
237	0x3deee5f7	0.11664956
238	0x3cb412b9	0.021981584
239	0x3cc71ab6	0.024304729
240	0x3cc000ef	0.023437945
241	0xbdb53b45	-0.088491954
242	0x3cb4faac	0.022092186
243	0x3d2915b1	0.041280452
244	0x3d8112cf	0.063024156
245	0x3c955a86	0.018231642
246	0xbdca0a0c	-0.098651975
247	0xbc0f3fed	-0.008743268
248	0xbc78bd78	-0.015181892
249	0x3d55e793	0.0522228
250	0xbb075369	-0.0020649082
251	0xbd329993	-0.04360349
252	0xbb3bdbc4	-0.0028664926
253	0x3d8c3963	0.06846883
254	0xbda1a544	-0.0789285
255	0x3de7a710	0.113111615

network_body._body_endoder.seq_layers.4.bias f4 [128]
0	0xb335564a	-4.2220826e-08
1	0xbcf05d66	-0.02934141
2	0x3bd65adc	0.006541593
3	0xbc9c00cc	-0.019043349
4	0xbc156a6f	-0.009119614
5	0xbc6358d9	-0.013876163
6	0xa81551cd	-8.288899e-15
7	0x3b124ed8	0.0022324827
8	0xbb9bfdde	-0.004760488
9	0xbc7cfaab	-0.015440623
10	0xbb792b67	-0.0038020255
11	0x3aa40371	0.0012513233
12	0xbb9e31e9	-0.004827727
13	0xbc629fab	-0.013832013
14	0x38581e49	5.152662e-05
15	0xbcd2b164	-0.025719352
16	0xbcb93497	-0.022608085
17	0xbd289d0e	-0.041165404
18	0x3bb34d44	0.0054718573
19	0xbd12952e	-0.0357868
20	0xbc4eb17f	-0.012615561
21	0xbd2e09ba	-0.042489745
22	0xbd04843b	-0.032352667
23	0xbce91ee2	-0.028457109
24	0xbceacc81	-0.028661968
25	0x3b5b113f	0.0033427028
26	0xbcbf14c9	-0.02332534
27	0xbc0b4266	-0.008499717
28	0x3c9ebbd5	0.019376675
29	0xbd2abfc2	-0.04168678
30	0xbbdc11a0	-0.0067159683
31	0xbc1ae91d	-0.009454993
32	0xbc09c0ff	-0.00840783
33	0xbc80a13d	-0.015701884
34	0xbcb5d549	-0.022196429
35	0x38518be6	4.9959774e-05
36	0xbce3275a	-0.027728725
37	0xbcd173a5	-0.025567839
38	0xbcc54670	-0.024081439
39	0xbcb3cbea	-0.02194782
40	0xbd468f4f	-0.048476513
41	0xbce908ff	-0.028446672
42	0x3c80d372	0.015725825
43	0xbd221a7d	-0.039576042
44	0xbb78742e	-0.0037911045
45	0x3c12bad8	0.00895568
46	0x3d023adc	0.031794414
47	0xbc0e37a7	-0.008680261
48	0x3aa94165	0.0012913166
49	0xbcf1a8ba	-0.0294994
50	0xbc0694b3	-0.008214164
51	0xba6fd942	-0.00091495004
52	0xbba31027	-0.0049762907
53	0xbc98ae1a	-0.018637706
54	0xbd394996	-0.045236193
55	0xbd10b5ba	-0.035329558
56	0x3b021e18	0.0019854363
57	0xbcb3ea64	-0.021962352
58	0x3bf14917	0.0073634493
59	0xbd06d5ae	-0.032918625
60	0xbd1b1b7f	-0.03786802
61	0xbb5e5cf6	-0.003392992
62	0x3c392c57	0.011302075
63	0xbcd9729a	-0.026543904
64	0xbad1e557	-0.0016013783
65	0xbbbc9d7d	-0.0057560788
66	0xbca7344e	-0.020410683
67	0xbccd93cf	-0.025094895
68	0xbb860420	-0.004089847
69	0xbc72c053	-0.0148163615
70	0xbd41979a	-0.04726372
71	0xbd29dbb7	-0.041469302
72	0xbc9e7fb0	-0.019347996
73	0xbcd022ab	-0.025407156
74	0xbb9343ad	-0.0044941516
75	0xbc9e2152	-0.019302998
76	0xbd351b5c	-0.044215545
77	0xbcba26ad	-0.02272352
78	0xbc0aa0b6	-0.008461168
79	0xbce318f7	-0.027721865
80	0xbca7e442	-0.020494584
81	0xbca1af53	-0.019736921
82	0x3c3e44bc	0.011613067
83	0xbc03f280	-0.008053422
84	0xba744100	-0.0009317547
85	0xbc82d1f9	-0.015969263
86	0xbca7817e	-0.020447489
87	0xbbb2fca5	-0.0054622465
88	0xbc81f203	-0.01586247
89	0xbc27ea16	-0.0102486815
90	0xbd18c69d	-0.037298787
91	0xbbdbb2be	-0.0067046573
92	0xbc7ca77c	-0.015420791
93	0xbc546ff0	-0.012966141
94	0xbd264b1c	-0.040598974
95	0x3c27b524	0.010236058
96	0xbcd4dedd	-0.025985176
97	0xbd03a937	-0.032143798
98	0xbd2455fa	-0.040121056
99	0x3cfb334f	0.030664114
100	0xbcd4582b	-0.025920948
101	0xbc99460a	-0.018710155
102	0xbcfa1da7	-0.030531717
103	0x3c2248bd	0.0099050375
104	0xbd359157	-0.04432806
105	0xba432ac1	-0.00074450305
106	0xbcf9ff3a	-0.03051721
107	0xbd44c8d2	-0.04804308
108	0xbc591037	-0.013248495
109	0xbce6dfac	-0.028182827
110	0xbc940dfe	-0.018073078
111	0xbcd03d95	-0.02541999
112	0xbc4368a0	-0.0119268
113	0xbafcecd0	-0.001929665
114	0xbd37b8b1	-0.04485387
115	0x18081392	1.7587468e-24
116	0xbc61c4f7	-0.01377987
117	0xbce5c56a	-0.028048236
118	0xbc76caa5	-0.015062963
119	0xbc8855d3	-0.016642487
120	0xbd835872	-0.06413354
121	0xbd0fe045	-0.03512599
122	0x3c3f218f	0.011665716
123	0xbc15b97e	-0.009138463
124	0xbd126f4e	-0.03575068
125	0xbcda3ad0	-0.026639372
126	0x3c1d18f8	0.009588473
127	0x3c7c4337	0.015396885

network_body._body_endoder.seq_layers.4.weight f4 [128, 128]
0	0xbcf8a04f	-0.030349879
1	0xbdac575e	-0.084151015
2	0x3d247a65	0.040155787
3	0x3df118a7	0.1177228
4	0xbd95e143	-0.07318356
5	0x3c6dde4e	0.014518334
6	0x3e0fe54f	0.14052318
7	0xbcc49c2d	-0.024000252
8	0x3c94faf5	0.018186072
9	0xbcf44048	-0.029815808
10	0xbc96dd84	-0.018416174
11	0xbdc569a4	-0.0963929
12	0x3db5349e	0.088479266
13	0xbd464caa	-0.048412956
14	0xbe4c3662	-0.1994262
15	0x3d5a2845	0.05326106
16	0xbde64804	-0.11244205
17	0x3c55a877	0.013040653
18	0x3c4a47b6	0.012346199
19	0xbd88308c	-0.066498846
20	0x3d3afeb8	0.045653075
21	0xbe03cd10	-0.12871194
22	0xbdf87e1c	-0.121334285
23	0xbc4e7111	-0.012600199
24	0xbcb4b4dc	-0.022058897
25	0x3c06a229	0.008217373
26	0x3cbaf280	0.022820711
27	0xbdf6db6e	-0.12053572
28	0x3dc85bda	0.09783144
29	0xbe19cd96	-0.15019831
30	0xbcc20955	-0.02368609
31	0xbdc165fc	-0.0944328
32	0x3d2d770e	0.042349868
33	0xbd5cf2c6	-0.053942464
34	0xbd823cdd	-0.06359265
35	0xbcdf2399	-0.027238654
36	0x3d401d81	0.046903137
37	0xbccc05bf	-0.024905084
38	0x3ce22316	0.02760462
39	0xbbf27773	-0.0073994934
40	0x3cc68a9a	0.024236012
41	0xbd314567	-0.043279078
42	0x3ad8c279	0.001653745
43	0x3ca4cb1f	0.020116387
44	0xbdcec9c6	-0.10097079
45	0xbdb61a6e	-0.0889176
46	0x3dcc6460	0.099800825
47	0x3e158332	0.14600828
48	0xbe267659	-0.16256084
49	0x3aa4a4ed	0.0012561359
50	0x3ca48002	0.02008057
51	0x3c7823e6	0.015145278
52	0x3e23cf81	0.15997125
53	0xbdaba5f1	-0.0838126
54	0xbd200b94	-0.03907354
55	0xbe02f466	-0.12788543
56	0x3db8fe84	0.0903292
57	0x3c6857b2	0.014181064
58	0x3c98aa18	0.018635795
59	0xbd95a03a	-0.073059514
60	0x3d8bdb43	0.0682893
61	0x3d31f204	0.043443695
62	0xbdbc76bd	-0.09202335
63	0x3c49c614	0.012315292
64	0xbe03cc7f	-0.12870978
65	0x3df778b9	0.12083573
66	0x3b797b91	0.0038068036
67	0x3dc6eeee	0.09713541
68	0x3dde8309	0.10864837
69	0x3ddffe78	0.10937208
70	0xbdea2136	-0.11432116
71	0x3ccdc73d	0.025119418
72	0xbc40c120	-0.011764795
73	0xbdeb9928	-0.115038216
74	0xbd8290ee	-0.063752994
75	0xbb0d960f	-0.0021604334
76	0xbe681ba5	-0.22666796
77	0xbd816c31	-0.06319464
78	0x3e097d0b	0.13426606
79	0x3d74c54f	0.05975848
80	0x3cac5a8e	0.021039274
81	0x3dc80527	0.09766608
82	0x3e06e199	0.13171996
83	0x3d9430ae	0.072358474
84	0xbca4f4fc	-0.020136349
85	0x3db56933	0.08857956
86	0xbadc2636	-0.0016796056
87	0x3c8f5e80	0.017501116
88	0x3d0f1e40	0.034940958
89	0x3dde3081	0.10849095
90	0xbdd604a9	-0.104501076
91	0xbd1f04ae	-0.038822822
92	0x3cb33386	0.021875154
93	0xbd35fa65	-0.044428248
94	0x3c9745b8	0.018465862
95	0x3c7f854e	0.015595747
96	0x3d3311bd	0.04371809
97	0xbdc777bb	-0.09739634
98	0x3dad2444	0.08454183
99	0x3cd2c519	0.02572875
100	0x3c333977	0.010938994
101	0xbd83a94c	-0.06428775
102	0x3c08bac9	0.008345314
103	0xbdbf633c	-0.09345099
104	0x3c310f55	0.010806878
105	0xbca761ad	-0.020432318
106	0xbbd82d76	-0.0065972162
107	0x3d239bc5	0.039943475
108	0x3c203d5f	0.009780257
109	0xbe0d516f	-0.13800596
110	0x3db7ec91	0.08980668
111	0xbd332964	-0.043740645
112	0x3ddda6ec	0.108228534
113	0x3b96c3c8	0.0046009757
114	0x3cd14575	0.025545815
115	0xbb3dfc79	-0.0028989597
116	0x3e11454c	0.14186591
117	0xbc04539b	-0.008076574
118	0xbbb10aa4	-0.00540288
119	0x3d876479	0.066109605
120	0x3de2f14f	0.11081182
121	0x3e25d54c	0.16194648
122	0xbd8957f8	-0.06706232
123	0xbe2ec466	-0.17067108
124	0xbdf8fe77	-0.1215791
125	0xbd945d5a	-0.07244368
126	0x3d400d09	0.04688743
127	0x3bb6b024	0.005575197
128	0x3d2da0d8	0.04238972
129	0x3d34fd0e	0.044186644
130	0x3c1ec720	0.00969103
131	0xbdb6926c	-0.089146465
132	0xbdfba6a7	-0.12287646
133	0xbd95c6fc	-0.07313344
134	0xbe29e541	-0.1659136
135	0x3d4e100e	0.05030828
136	0xbe1aa64e	-0.15102503
137	0x3d401c53	0.046902012
138	0x3d227373	0.039660882
139	0x3cedb175	0.029015282
140	0x3d8d8642	0.06910373
141	0xbe58477e	-0.21121022
142	0x3dd22bd1	0.102622636
143	0xbd030a67	-0.031992342
144	0xbd741103	-0.059586536
145	0xbd801996	-0.0625488
146	0x3d3757a6	0.044761322
147	0x3b7603cf	0.0037538891
148	0x3def2485	0.116768874
149	0x3dfd7116	0.12375085
150	0xbdf41d68	-0.11919671
151	0xbe27a08e	-0.1636984
152	0x3dc27cbb	0.09496447
153	0xbd240cec	-0.040051386
154	0x3e2fa5dd	0.17153116
155	0xbd1da88b	-0.038490813
156	0xbd850675	-0.06495372
157	0xbd0186b5	-0.031622607
158	0xbd78d4a9	-0.060749684
159	0x3cef4b2b	0.029210648
160	0xbd1567b8	-0.036475867
161	0x3cc87343	0.024469024
162	0xbd386eb1	-0.04502744
163	0x3c64cfa1	0.013965518
164	0x3b728153	0.0037003353
165	0x3d5ca074	0.053863958
166	0x3da17a59	0.07884664
167	0xbcefc37e	-0.029268023
168	0xbd9f8e1f	-0.07790779
169	0xbe221dfc	-0.1583175
170	0x3df6e141	0.120546825
171	0x3ce63cb0	0.02810511
172	0xbe16caa0	-0.14725733
173	0x3d7bd963	0.061486613
174	0x3da24360	0.07923007
175	0xbd943d6a	-0.07238276
176	0xbd05b325	-0.03264155
177	0x3e46833c	0.19386
178	0x3bca432a	0.0061725574
179	0x3d650587	0.055913474
180	0xbcf33243	-0.029687053
181	0xbc9c2ff2	-0.01906583
182	0xbdfe8db5	-0.12429372
183	0xbe500b24	-0.2031675
184	0x3c0346c8	0.008012481
185	0xbcc10602	-0.023562435
186	0x3c822edd	0.015891487
187	0xbcc5a5ca	-0.024126906
188	0xbc984f5b	-0.018592527
189	0xbdb5b503	-0.08872416
190	0xbd6441f3	-0.055726957
191	0x3d0f9100	0.035050392
192	0xbc92f179	-0.017937409
193	0x3c01028a	0.0078741405
194	0x3d8c74aa	0.068581894
195	0x3e755fda	0.23962346
196	0xbd7e21ec	-0.06204407
197	0x3dbfd1f1	0.09366215
198	0xbc1f8ce4	-0.009738181
199	0xbd75045a	-0.059818603
200	0x3dee1567	0.11625176
201	0xbd3f388f	-0.046684798
202	0xbd001cd4	-0.031277493
203	0xbd550573	-0.05200715
204	0xbba3d82c	-0.005000135
205	0xbde3577c	-0.11100671
206	0xbd7c4c7c	-0.06159638
207	0x3db9a699	0.09064979
208	0x3d0ac4aa	0.03387896
209	0x3dd279ce	0.10277139
210	0xbbf0ba5f	-0.007346436
211	0x3e2109d9	0.15726413
212	0x3d13ef44	0.036116853
213	0xbd31a358	-0.043368667
214	0x3c9a1656	0.018809479
215	0x3d28ea4f	0.04123908
216	0x3d0ef676	0.034903012
217	0xbb1a5e19	-0.0023554622
218	0xbc7f9251	-0.015598849
219	0xbd029faf	-0.031890567
220	0xbd8bd8a1	-0.06828428
221	0xbe127f8f	-0.14306472
222	0x3d00c3f7	0.031436887
223	0xbdd9b11b	-0.10629483
224	0xbda36a03	-0.079792045
225	0xbc4a2b9d	-0.0123395
226	0x3d0ac404	0.03387834
227	0xbdaecc7a	-0.085350946
228	0xbd8932c4	-0.06699136
229	0xbdb7f4d7	-0.08982246
230	0x3e0b7937	0.13620459
231	0x3dbf1009	0.0932923
232	0xbe2e7747	-0.17037688
233	0x3d4c97d6	0.04994949
234	0xbd826bc4	-0.06368211
235	0xbe3df006	-0.18548593
236	0x3d98611c	0.07440397
237	0xbb90545f	-0.004404589
238	0xbd22e889	-0.039772544
239	0xbd9eaa3f	-0.077473156
240	0xbd91126a	-0.0708359
241	0x3d9bb41f	0.07602715
242	0xbdfdc5cf	-0.123912446
243	0x3d9b77dc	0.07591221
244	0x3e2e753b	0.17036907
245	0xbe03a77e	-0.12856862
246	0xbd5a7150	-0.05333072
247	0x3ca98fc2	0.020698432
248	0xbe41cba2	-0.18925336
249	0xbe0283f6	-0.12745652
250	0xbdd2d1bc	-0.1029391
251	0xbdb480b5	-0.088136114
252	0x3d156fd1	0.03648359
253	0x3b917454	0.004438916
254	0xbc83b740	-0.016078591
255	0xbd5557ac	-0.052085564

network_body._body_endoder.seq_layers.6.bias f4 [128]
0	0xbcab4738	-0.020907983
1	0xbd60de3e	-0.054899447
2	0xbd0738d2	-0.033013172
3	0xb9878ec9	-0.0002585559
4	0xbd7a8504	-0.06116201
5	0xbc7ba74e	-0.015359713
6	0xbced6a7b	-0.028981438
7	0xbc99f740	-0.018794656
8	0xbcebc83b	-0.028782
9	0xbc9528ea	-0.018207986
10	0xbd4bfaad	-0.04979961
11	0xbca61170	-0.020271987
12	0xbca34b3f	-0.019933341
13	0xbd49532e	-0.049151592
14	0xbd1be804	-0.038063064
15	0xbd892af6	-0.06697647
16	0xbd3d6b7d	-0.046245087
17	0xbd68ab71	-0.056804124
18	0xbc945f58	-0.01811187
19	0xbaa0a3fe	-0.0012255905
20	0xbd21859e	-0.039434068
21	0xbd2457c0	-0.040122747
22	0xbd8eb084	-0.069672614
23	0xbcbec900	-0.023289204
24	0xbc5143e4	-0.012772534
25	0xbc3d8817	-0.011568091
26	0xbd5c801e	-0.05383312
27	0xbd14d3ee	-0.036334924
28	0xbd371f65	-0.044707675
29	0xbcfec89c	-0.031101517
30	0xbcbc5d87	-0.022993816
31	0xbd172245	-0.036897916
32	0xbc8d8fdf	-0.017280517
33	0xbd0f461e	-0.03497898
34	0x3ba4ac2b	0.005025407
35	0xbc94a073	-0.018142914
36	0xbd3de921	-0.046364907
37	0xbd0aee14	-0.033918455
38	0xbca86d9d	-0.02056008
39	0xbd48cce0	-0.04902351
40	0xbc9530bc	-0.018211715
41	0xba3c4696	-0.0007182149
42	0xbcea4e0e	-0.028601673
43	0xbd3fc977	-0.04682299
44	0xbd1893db	-0.03725038
45	0xbd4c66ac	-0.049902603
46	0xbd4abc15	-0.049495775
47	0x3c1ac6cf	0.009446814
48	0xbd512fac	-0.051070854
49	0xbd32b695	-0.043631155
50	0xbce634ed	-0.028101409
51	0xbd8b2714	-0.06794563
52	0xbd14f881	-0.036369804
53	0xbc804792	-0.015659127
54	0xbd6516ed	-0.055930067
55	0xbd5d5d99	-0.05404434
56	0xbc691cb3	-0.014228034
57	0xbce61045	-0.02808393
58	0xbd019211	-0.03163344
59	0xbc702fea	-0.014659861
60	0xbc5ddaf2	-0.01354097
61	0xbc2774c7	-0.010220713
62	0xbd7063ee	-0.05868905
63	0xbd29eeea	-0.04148761
64	0xbc845416	-0.016153377
65	0xbc92f33b	-0.017938247
66	0xbbee46ce	-0.007271624
67	0xbd1c9476	-0.03822752
68	0xbc808751	-0.015689524
69	0xbc0f83b8	-0.008759432
70	0xbc9ceeb0	-0.019156784
71	0xbbb46196	-0.005504797
72	0xbc7bdbfe	-0.015372274
73	0xbd79f55a	-0.061025
74	0xbd0bf1c0	-0.034166098
75	0xbd169b08	-0.036768943
76	0xbc3f48bd	-0.011675057
77	0xbc7bc559	-0.015366876
78	0xbcf39c1a	-0.029737521
79	0x3c4bd2d7	0.012440405
80	0xbd25d340	-0.040484667
81	0xbb948c97	-0.004533361
82	0xbce9a21c	-0.028519683
83	0xbd8a07b9	-0.06739754
84	0xbcaee6ab	-0.021350225
85	0xbcedb17e	-0.029015299
86	0x3abbddd8	0.0014333082
87	0xbcefa61c	-0.029254012
88	0xbc90a3dc	-0.01765626
89	0xbc4c8e4b	-0.012485097
90	0xbbc7dc5c	-0.006099267
91	0xbc289b2b	-0.010290901
92	0xbd0b7020	-0.034042478
93	0xbd039707	-0.032126453
94	0x3c836c8c	0.01604297
95	0xbd04a4ea	-0.032383837
96	0xbccb420c	-0.024811767
97	0xbd7bccfd	-0.06147479
98	0xbd0ac6b1	-0.033880893
99	0xbd5e2865	-0.054237742
100	0xbd2a5b09	-0.041590724
101	0xbcbb5393	-0.022867
102	0xbd4a1f58	-0.049346298
103	0xbcb3cb1a	-0.021947432
104	0xbd1442fb	-0.03619669
105	0xbc8d8c9c	-0.017278962
106	0xbd83030e	-0.06397067
107	0xbcb18798	-0.021671101
108	0xbca97e57	-0.020690126
109	0xbd792d9e	-0.06083452
110	0xbcd3a536	-0.025835615
111	0xbd4e503f	-0.050369497
112	0xbbadc45b	-0.0053029484
113	0xbc9f1982	-0.019421343
114	0xbcbc1af4	-0.022962071
115	0xbcbf39c4	-0.023342974
116	0xbd526c35	-0.051372726
117	0xbd31c051	-0.043396298
118	0x3b760058	0.0037536826
119	0xbc669400	-0.014073372
120	0xbc7d7970	-0.0154708475
121	0xbce405f0	-0.027834862
122	0xbd4ed359	-0.050494526
123	0xbd257d62	-0.040402777
124	0xbc95840d	-0.018251443
125	0xbbf5db25	-0.0075029307
126	0xbae45110	-0.0017419178
127	0x3c8eed1d	0.017447049

network_body._body_endoder.seq_layers.6.weight f4 [128, 128]
0	0x3e48198a	0.19540992
1	0xbe05807d	-0.13037296
2	0x3da18ec6	0.0788856
3	0x3d7f9296	0.062395655
4	0xbd3b3fba	-0.04571507
5	0xbdb73bb9	-0.08946938
6	0x3d2f7941	0.042840246
7	0x3e60990c	0.21933383
8	0x3e0e1882	0.13876536
9	0x3d90efcb	0.07076987
10	0xbdcd0c42	-0.100121036
11	0xbd0cf489	-0.034412894
12	0x3e891623	0.267747
13	0x3dba79b5	0.09105245
14	0xbce8e233	-0.028428173
15	0xbd509888	-0.050926715
16	0xbcda2eea	-0.026633698
17	0xbd96643d	-0.07343338
18	0x3d54994a	0.051904
19	0xbd2451f3	-0.040117215
20	0x3ac4e5c3	0.0015022088
21	0x3cad6953	0.021168387
22	0x3d9daf34	0.07699433
23	0xbd47dc2a	-0.04879395
24	0x3c8b138f	0.0169771
25	0xbd39a7d2	-0.04532606
26	0xbcf383e8	-0.029725984
27	0x39e6013f	0.00043869947
28	0x3c47cc4e	0.012194706
29	0x3debfbf9	0.11522669
30	0xbcd1b453	-0.02559868
31	0x3e02dfac	0.12780637
32	0xbdd39cdf	-0.10332655
33	0x3bbef7d8	0.005827885
34	0xbd4424ac	-0.047886536
35	0x3dcf038f	0.101081006
36	0xbccfe2db	-0.025376728
37	0x3d319897	0.04335841
38	0xbd9c5104	-0.0763264
39	0x3d48551f	0.048909303
40	0xbdd992ba	-0.10623689
41	0xbe0c83f6	-0.13722214
42	0xbd491da7	-0.049100544
43	0xbbae3e88	-0.005317513
44	0xbe2b83e8	-0.16749537
45	0x3d9da41f	0.07697319
46	0xbd9c4904	-0.07631114
47	0xbdd10534	-0.102060705
48	0xbd3a507e	-0.04548692
49	0x3da9cc19	0.08290882
50	0x3df9e6c3	0.122022174
51	0x3e2b8c1f	0.1675267
52	0x3c196806	0.00936318
53	0xbd542951	-0.051797215
54	0x3dbeee54	0.09322801
55	0x3bafdce7	0.00536691
56	0xbdca092e	-0.09865032
57	0x3d144148	0.03619507
58	0xbe406b5b	-0.18790953
59	0x3d9c8f12	0.07644476
60	0x3c6f573e	0.0146082025
61	0x3d884916	0.06654565
62	0xbd1c3c0a	-0.038143195
63	0x3b1fae69	0.002436543
64	0x3d63c333	0.05560608
65	0xbc3bc8ae	-0.01146142
66	0xbc023404	-0.007946972
67	0x3c6e6ee9	0.01455281
68	0xbdea6197	-0.11444395
69	0x3de5fba9	0.11229641
70	0x3ccb831c	0.024842791
71	0x3dd5b0e9	0.104341336
72	0xbe3f54f5	-0.18684752
73	0x3d03f245	0.032213468
74	0xbc7088ff	-0.0146811
75	0x3d50698f	0.05088192
76	0xbdbc056e	-0.09180723
77	0xbdbfb9ce	-0.09361611
78	0x3d1c23e0	0.03812015
79	0xbd818872	-0.06324853
80	0x3d58a593	0.05289228
81	0x3e0c82bb	0.13721745
82	0xbd78118d	-0.060563613
83	0x3dbc00cd	0.0917984
84	0xbce3049e	-0.027712163
85	0xbd5968d5	-0.05307849
86	0xbcb4a5f0	-0.022051781
87	0x3d12e8db	0.0358666
88	0x3b9518c8	0.0045500733
89	0xbdbcd467	-0.092202
90	0x3dc96b5e	0.09834932
91	0xbd53f071	-0.051742975
92	0x3dab40f8	0.08362001
93	0x3d8b3225	0.06796674
94	0x3c4d1e7d	0.012519476
95	0xbdaf19ea	-0.085498646
96	0xbad28450	-0.0016061161
97	0x3dbba2ac	0.091618866
98	0xbdb37c14	-0.087639004
99	0xbccebf99	-0.025237845
100	0xbbd0eaf6	-0.006375666
101	0x3e078eba	0.1323804
102	0x3cd0cef1	0.025489302
103	0xba8ea937	-0.001088417
104	0xbe11d5d8	-0.14241731
105	0xbd286bae	-0.041118316
106	0xbd1c5a79	-0.03817222
107	0xbd9b43cb	-0.0758129
108	0xbe1a563e	-0.15071961
109	0x3dc72de2	0.09725548
110	0xbcd58f85	-0.026069412
111	0x3d881a2a	0.066456154
112	0xbd612ac3	-0.05497242
113	0xbe308c90	-0.1724112
114	0xbca7b595	-0.020472327
115	0xbb07c014	-0.0020713853
116	0x3e11eabb	0.14249699
117	0x3d9f9a97	0.077931575
118	0xbce55d0d	-0.027998472
119	0xbbbec7a6	-0.00582214
120	0xbdf695eb	-0.12040313
121	0xbdc9b662	-0.0984924
122	0xbd8cffaa	-0.068847016
123	0x3d05bfc0	0.03265357
124	0xbde20868	-0.110367596
125	0x3deeea8f	0.11665832
126	0xbdd7de66	-0.10540466
127	0xbd1311b5	-0.03590556
128	0xbd805480	-0.06266117
129	0x3d9069ee	0.070514545
130	0xbd0cd0b4	-0.034378722
131	0xbca50575	-0.020144204
132	0x3da7a964	0.081866056
133	0xbe73dc75	-0.23814566
134	0x3c3f04f5	0.011658897
135	0x3d810c57	0.06301182
136	0xbd4dd662	-0.05025328
137	0x3dbdc7c1	0.09266616
138	0x3dcf50d3	0.10122838
139	0x3c8390ae	0.0160602
140	0x3da261e9	0.07928831
141	0x3e2c9924	0.16855294
142	0xbe053ad4	-0.13010722
143	0x3d7758b1	0.060387317
144	0xbcfd44e3	-0.030916637
145	0x3cf2bb74	0.0296304
146	0xbdf0aeff	-0.11752128
147	0xb9649315	-0.00021798567
148	0xbdcc4198	-0.099734485
149	0x3e32a79d	0.17446752
150	0x3e2146f0	0.15749717
151	0x3c3616ab	0.011113803
152	0xbd9683d6	-0.073493645
153	0x3dce808a	0.10083111
154	0xbcc5b387	-0.024133457
155	0x3c08f88e	0.008360041
156	0xbe286320	-0.16444063
157	0xbd3e4a63	-0.04645766
158	0xbd7fe618	-0.062475294
159	0x3ba2b743	0.004965694
160	0x3d61c928	0.05512348
161	0xbc69ea35	-0.014277031
162	0x3d708436	0.058719836
163	0xbc270814	-0.010194797
164	0x3d456216	0.048189245
165	0x3e11f982	0.14255336
166	0xbd8d52be	-0.069005474
167	0xbda6ad89	-0.08138568
168	0xbd84de71	-0.0648774
169	0xbdc78664	-0.0974243
170	0xbcfa8591	-0.030581268
171	0xbcc7e3cc	-0.024400614
172	0xbdcfe51f	-0.10151123
173	0xbdfbf425	-0.12302426
174	0xbbb60050	-0.0055542365
175	0xbdb82e45	-0.089932
176	0x3d625661	0.05525816
177	0xbd73fe73	-0.059568834
178	0x3dac1965	0.08403281
179	0x3d8533ad	0.06503997
180	0x3a56579d	0.00081765075
181	0xbd0b15d6	-0.03395637
182	0x3b21dd37	0.0024698505
183	0xbe32aefa	-0.17449561
184	0x3ca76db4	0.020438053
185	0xbd90c1dc	-0.07068226
186	0xbd0b30bb	-0.03398202
187	0xbdd8dc1a	-0.10588856
188	0xbd48ad5d	-0.048993457
189	0x3d740c62	0.05958212
190	0xbe01dfbb	-0.12683003
191	0x3da43fbb	0.08019968
192	0x3b80b951	0.0039283414
193	0x3dbd073c	0.092298955
194	0x3cfe6f1a	0.031058837
195	0xbcbdabb5	-0.023153165
196	0xbe193607	-0.14962016
197	0x3d8145f3	0.0631217
198	0xbd83598a	-0.064135626
199	0xbe1a4ee5	-0.15069158
200	0xbd04efd2	-0.032455273
201	0x3d5eff6b	0.054442804
202	0xbbbf263c	-0.0058334153
203	0x3c337a90	0.010954514
204	0x3d27ed10	0.040997565
205	0x3d38c5a6	0.045110367
206	0xbbf3624d	-0.00742749
207	0x3d8f3e11	0.0699426
208	0xbaa206a9	-0.0012361604
209	0x3da78ed6	0.08181541
210	0xbdcef033	-0.10104408
211	0xbda4c9cd	-0.08046303
212	0x3e0842f3	0.13306789
213	0x3cffb4fc	0.03121423
214	0x3d9f6e5a	0.0778472
215	0xbdb26e59	-0.087124534
216	0xbe62bccd	-0.22142334
217	0x3e0bc6cf	0.13650058
218	0x3e1a1f7a	0.1505107
219	0x3d024744	0.031806245
220	0xbbccb522	-0.0062471787
221	0x3d360f15	0.044447977
222	0xbdbcb6ec	-0.09214577
223	0x3db77641	0.08958102
224	0xbe01374a	-0.12618747
225	0x3df03e66	0.117306516
226	0x3b0dbf71	0.0021629
227	0xbdb3bdf2	-0.087764636
228	0xbe00caaf	-0.12577318
229	0x3c551b2b	0.013006966
230	0xbd8ad1ef	-0.06778323
231	0x3bc64d43	0.006051691
232	0xbd1ef0e4	-0.03880395
233	0x3dd5e9ba	0.104449704
234	0xbdddc7e0	-0.10829139
235	0xbddc5db5	-0.10760061
236	0xbd92a172	-0.071596995
237	0xbd631b49	-0.055445943
238	0xbdf5c26e	-0.11999975
239	0x3b9abe60	0.0047224015
240	0xbd7a0da5	-0.06104817
241	0xbe617545	-0.22017391
242	0x3d930635	0.07178918
243	0xbe0538ea	-0.13009992
244	0x3d255311	0.04036242
245	0xbd6b51b0	-0.05745095
246	0xbd9938a9	-0.0748151
247	0xbe0ad221	-0.1355672
248	0x3d47df6b	0.048797052
249	0x3ca5b1a0	0.0202263
250	0xbe282ca7	-0.16423284
251	0xbd63795b	-0.055535655
252	0x3b181055	0.0023203094
253	0xbc26fa21	-0.010191471
254	0x3d813b79	0.06310172
255	0xbd222bf0	-0.039592683
